models/halfcheetah/n_anchors=2.pt (torch, 864889 bytes, 18 tensors)

action_var f4 [6]
-1.0802337 -1.2779475 -0.8835796 -1.4714327 -1.1432023 -0.99824774
00000000: 1945 8abf c993 a3bf 4632 62bf e857 bcbf
00000010: 7454 92bf 2a8d 7fbf

actor.0.anchors.0.weight f4 [256, 17]
0.079112746 0.3311405 0.0688593 0.029538581 0.20525406 -0.08354815 -0.13635662 -0.20988813
0.112373434 -0.17724586 0.13044083 0.11166365 0.11099094 0.17966957 -0.13080785 0.08278161
-0.04669249 -0.11312137 -0.36715534 0.12788758 0.016784266 0.145646 -0.20106728 0.138305
-0.11754668 -0.17711207 0.13778616 0.03330554 -0.053682204 0.026580565 -0.035863377 0.020251147
0.13397534 -0.151482 -0.008776382 -0.35895538 -0.1360561 -0.101126626 -0.112207964 0.052814264
0.16128165 0.13885945 0.062434886 -0.318269 -0.04122377 -0.03952194 -0.1449893 -0.13276082
0.05658251 -0.018532991 -0.0147680985 0.49700153 -0.19937345 0.0055486336 0.063527934 -0.076934665
-0.080702424 0.05619049 -0.19188435 0.1835295 0.1616316 -0.0147569915 -0.1357278 -0.0038828047
0.025748713 0.096026935 0.107364126 0.06588107 0.17167617 0.005604582 -0.11118655 -0.22457944
-0.19135341 -0.1464956 0.09996337 0.0347464 0.13129717 0.050853547 0.2683178 -0.19741853
-0.06953022 0.014805564 -0.15376936 -0.14140621 -0.22056782 -0.14073098 -0.3767379 -0.29093677
0.14404038 -0.17772338 0.08889508 0.24554797 -0.011069385 -0.09199237 -0.01803797 -0.053135253
0.23001352 0.13231641 0.1370201 -0.13603897 0.15103102 -0.09975527 0.16536264 -0.4369702
0.027825773 0.034356784 0.0014064403 0.09437064 -0.11700676 -0.24381876 0.07899767 0.25451747
0.022006307 -0.15188922 -0.15402341 0.0912903 0.13785042 0.13307463 -0.09978206 -0.27071854
-0.011530901 -0.028254015 0.038978126 -0.0697476 0.069534734 -0.06904695 -0.09060197 -0.04912361
0.086008355 0.2761729 0.092260264 0.059751526 0.16158408 -0.093432724 0.046533525 0.0119969
-0.22671929 -0.4422963 0.060264982 0.06909493 0.0272017 0.058140796 -0.2625585 0.12957214
-0.049204104 0.044642866 -0.17280354 -0.03651027 -0.06838188 -0.171536 0.09572793 -0.018526921
-0.030807009 -0.018586554 -0.13019 0.08711796 0.0670979 -0.018294318 0.08609071 -0.04947885
0.12986729 -0.021518394 -0.17795436 -0.06590428 0.16898362 -0.07975193 -0.056584865 0.0989359
-0.020858819 -0.091212064 -0.22331427 -0.19490129 0.09577989 -0.11690835 0.14086032 -0.095775545
0.08639074 -0.2708759 0.06739156 -0.24789748 0.10430297 0.15927191 0.16552363 -0.090285346
0.03697149 -0.09086912 0.030915672 0.3297805 0.2213764 -0.020427067 -0.22689849 0.010510914
0.034800094 0.32396287 0.095709555 0.2005245 0.01564369 0.1868474 0.00013565444 0.05719116
0.1623125 0.14563689 0.2178897 0.11709801 0.16802672 0.17841959 0.08770882 -0.10095908
-0.07477206 0.08717593 -0.18332022 -0.2634915 -0.09373538 -0.13916759 0.14940096 0.1051502
0.036073275 0.14545463 0.13580379 0.20014629 0.07752189 -0.08865311 -0.21817654 0.100660704
0.14127822 0.03275554 -0.03398285 -0.020673377 0.15944083 -0.17927364 -0.35799947 0.06175568
0.18945785 0.09855129 0.14450628 -0.27098683 -0.01024104 0.0005741554 -0.2566102 -0.24798532
0.14670958 -0.115986325 -0.105686806 -0.09245645 -0.12586771 0.06897669 -0.03497192 -0.2586899
0.02384035 0.22729799 -0.14267045 -0.026311932 -0.07038356 -0.14292252 0.10090308 -0.18095642
00000000: dd05 a23d 3f8b a93e 1b06 8d3d e5fa f13c
00000010: 1f2e 523e 4b1b abbd 12a1 0bbe eaec 56be
00000020: 0b24 e63d f07f 35be 4892 053e e9af e43d
00000030: 384f e33d 4dfb 373e 7ef2 05be 6889 a93d
00000040: a040 3fbd 2dac e7bd c9fb bbbe f6f4 023e
00000050: 287f 893c 3a24 153e 95e4 4dbe d39f 0d3e
00000060: 50bc f0bd de5c 35be d117 0d3e 646b 083d
00000070: dfe1 5bbd 7cbf d93c 7ae5 12bd bce5 a53c
00000080: d530 093e 191e 1bbe d0ca 0fbc 00c9 b7be
00000090: 4a52 0bbe 7a1b cfbd 4acd e5bd c553 583d
000000a0: 0427 253e 2c31 0e3e b9bb 7f3d 28f4 a2be
000000b0: 41da 28bd c2e1 21bd 1378 14be 74f2 07be
000000c0: 10c3 673d 80d2 97bc e5f5 71bc fc76 fe3e
000000d0: 8e28 4cbe 50d1 b53b ef1a 823d ec8f 9dbd
000000e0: 5047 a5bd 0028 663d 557d 44be 28ef 3b3e
000000f0: c182 253e 4fc7 71bc 3afc 0abe a776 7ebb
00000100: f7ee d23c c5a9 c43d b9e1 db3d a8ec 863d
00000110: e1cb 2f3e a4a6 b73b c6b5 e3bd 27f8 65be
00000120: 26f2 43be f102 16be 98b9 cc3d 3e52 0e3d
00000130: c472 063e cf4b 503d f360 893e 1528 4abe
00000140: dc65 8ebd 0993 723c b775 1dbe cacc 10be
00000150: 88dc 61be c81b 10be cae3 c0be aaf5 94be
00000160: 527f 133e 1efd 35be a00e b63d ed70 7b3e
00000170: 5e5c 35bc 7f66 bcbd 5dc4 93bc 5aa4 59bd
00000180: aa88 6b3e f47d 073e ff4e 0c3e cd4d 0bbe
00000190: e0a7 1a3e 7e4c ccbd d354 293e 8fba dfbe
000001a0: e0f2 e33c b3b9 0c3d 4e58 b83a 6545 c13d
000001b0: 3da1 efbd a0ab 79be 88c9 a13d 1d50 823e
000001c0: 9246 b43c d988 1bbe 50b8 1dbe 69f6 ba3d
000001d0: a928 0d3e b744 083e 895a ccbd 9f9b 8abe
000001e0: 1bec 3cbc f774 e7bc 87a7 1f3d d4d7 8ebd
000001f0: 3a68 8e3d 7d68 8dbd 878d b9bd d735 49bd
00000200: 2625 b03d 8966 8d3e f3f2 bc3d 04be 743d
00000210: 4c76 253e a859 bfbd f099 3e3d a58e 443c
00000220: 1a29 68be a974 e2be 6ad8 763d a581 8d3d
00000230: 19d6 de3c 0b25 6e3d 116e 86be 8fae 043e
00000240: 3e8a 49bd 70db 363d 69f3 30be cb8b 15bd
00000250: cd0b 8cbd 22a7 2fbe 010d c43d c5c5 97bc
00000260: fb5e fcbc d442 98bc 8750 05be e76a b23d
00000270: a06a 893d f7dd 95bc 5350 b03d 56aa 4abd
00000280: eefb 043e 5847 b0bc ab39 36be d3f8 86bd
00000290: 0b0a 2d3e fb54 a3bd 88c5 67bd e89e ca3d
000002a0: 1de0 aabc 64cd babd 7fac 64be 3494 47be
000002b0: 3f28 c43d a56d efbd b03d 103e f825 c4bd
000002c0: a1ed b03d 3fb0 8abe 9604 8a3d d6d8 7dbe
000002d0: cc9c d53d 2d18 233e 077f 293e 86e7 b8bd
000002e0: 6b6f 173d 9719 babd dd42 fd3c fdd8 a83e
000002f0: 7fb0 623e aa56 a7bc 1458 68be f835 2c3c
00000300: 8b8a 0e3d 76de a53e 5f03 c43d 4b56 4d3e
00000310: 3227 803c ed54 3f3e 763e 0e39 4741 6a3d
00000320: 3f35 263e d621 153e 7a1e 5f3e 15d1 ef3d
00000330: 320f 2c3e a0b3 363e afa0 b33d a2c3 cebd
00000340: 1822 99bd 4b89 b23d 4cb8 3bbe 5ce8 86be
00000350: 56f8 bfbd f381 0ebe 91fc 183e fd58 d73d
00000360: 92c1 133d 0ff2 143e 2610 0b3e 26f3 4c3e
00000370: ccc3 9e3d c38f b5bd ac69 5fbe 3327 ce3d
00000380: 3dab 103e ac2a 063d 9a31 0bbd 375b a9bc
00000390: 7544 233e 8293 37be b54b b7be 86f3 7c3d
000003a0: 3d01 423e 42d5 c93d 74f9 133e c9be 8abe
000003b0: 09ca 27bc eb82 163a 6a62 83be ddef 7dbe
000003c0: 093b 163e 3d8a edbd 5372 d8bd cf59 bdbd
000003d0: 77e3 00be a743 8d3d b73e 0fbd 0173 84be
000003e0: d64c c33c cec0 683e 3418 12be 1f8c d7bc
000003f0: 4225 90bd 485a 12be 46a6 ce3d a44c 39be

actor.0.anchors.0.bias f4 [256]
-0.2071611 -0.19040352 0.18481557 0.07342632 -0.008501481 0.14657481 -0.1719531 -0.058136217
0.13425007 0.19964543 -0.119451925 0.06405203 -0.24872085 -0.17927434 -0.14750978 -0.24535382
-0.026449094 -0.27840647 -0.06999841 -0.118390396 0.041379496 -0.11831391 0.092439614 0.017798852
-0.09954933 0.05197241 -0.023890583 -0.30846748 -1.8422685e-05 -0.19114172 -0.15112406 -0.14701428
0.14710495 -0.03039451 -0.15890129 -0.18998353 0.05533156 0.16490449 -0.0124940835 -0.13436255
0.08068852 -0.07064667 -0.018278096 -0.24866503 0.08550353 -0.2302297 -0.035304274 0.2188888
0.17946693 0.024872042 0.018387666 -0.010439762 0.075221024 0.16240975 -0.27468088 -0.07079803
-0.15343079 -0.0754367 -0.28527075 -0.07302832 -0.057509072 0.09801622 -0.21244358 -0.24023347
0.18464415 0.08141418 0.1395066 0.07941638 -0.18759036 -0.15977095 -0.040694244 0.034516964
-0.1248835 0.06362358 -0.039146055 -0.0548426 -0.10975064 -0.23808095 0.13403974 0.108553335
0.12367212 -0.19921203 -0.047201734 -0.03277715 0.06681657 -0.18056181 -0.17907155 -0.16467336
-0.07822779 -0.09443844 -0.1928642 -0.0060221637 -0.045630567 0.12551044 -0.17832936 -0.16748449
-0.12560216 0.20023242 0.29278052 -0.0020067599 0.109485574 0.020344868 -0.047124315 -0.06248733
-0.0782083 -0.005693458 -0.01255409 -0.15316868 0.05400365 -0.10155149 0.20771597 0.11935934
-0.055518493 0.09723608 0.26902068 -0.053347576 0.22829035 -0.08955064 0.008157291 -0.18097171
-0.026846966 0.09482644 0.2160319 0.006323346 0.13010007 0.07396025 0.10038522 -0.18710509
-0.19709703 -0.14539665 0.13990851 -0.0740385 0.14188923 0.069057465 0.0599132 -0.11296201
0.122315094 -0.23059173 -0.14053532 -0.061096385 -0.03864339 -0.030529229 -0.05532684 -0.028745884
0.04997707 -0.07755042 -0.15669036 -0.16371916 -0.048940647 -0.09579151 -0.14722283 0.174599
-0.07858718 0.019220458 -0.029663105 0.0005778663 0.05714801 0.13764998 -0.12958632 -0.13968691
0.08567852 -0.20479691 -0.1164352 0.09612744 -0.0750076 0.1735923 -0.22377813 -0.11945951
-0.009009808 -0.03667522 0.19841403 -0.14608757 -0.13926648 -0.15059735 0.064406194 -0.1359361
-0.19362104 0.07342518 -0.14312033 0.092810154 0.1400076 0.061667778 0.031665556 -0.0470508
0.023026302 -0.16717716 -0.049206346 -0.20629112 -0.14090447 -0.04310651 0.07694375 -0.089257
0.19134238 -0.11088539 0.13723241 -0.048213422 -0.004030262 0.12998424 0.012567239 0.10325796
0.069069 0.043036584 0.20311496 -0.1007144 0.059350327 0.06823056 -0.20675704 0.16986185
0.25956628 -0.046762668 -0.009021789 0.050384644 0.0907514 0.06580668 -0.041496444 0.1672053
0.06339692 0.06503423 0.04842391 0.20370844 0.16123477 0.23060448 -0.19738448 0.15090212
0.035431366 -0.1014692 -0.034413096 -0.012875778 -0.17280285 0.04964204 -0.13997373 -0.084738016
-0.012024829 -0.18541624 -0.14974298 0.23915705 0.003314814 -0.29566103 -0.17234084 -0.14954904
-0.18284357 -0.2968345 0.12119785 0.024562273 -0.20741947 -0.18117 0.045615442 -0.20359817
0.20920886 0.025001315 -0.10142116 -0.020564616 0.114041224 -0.069753446 -0.07515533 0.18674585
00000000: 0a22 54be 24f9 42be 4b40 3d3e 8a60 963d
00000010: cc49 0bbc b517 163e 7914 30be 3e20 6ebd
00000020: da78 093e da6f 4c3e 36a3 f4bd b62d 833d
00000030: aeb0 7ebe b193 37be ce0c 17be 083e 7bbe
00000040: c5ab d8bc 4b8b 8ebe 545b 8fbd aa76 f2bd
00000050: 8c7d 293d 904e f2bd fb50 bd3d e6ce 913c
00000060: 85e0 cbbd 06e1 543d 2fb6 c3bc 73ef 9dbe
00000070: 6a8a 9ab7 a8ba 43be 44c0 1abe e98a 16be
00000080: aea2 163e e8fd f8bc 05b7 22be 0b8b 42be
00000090: 59a3 623d b9dc 283e fcb3 4cbc 5696 09be
000000a0: 0640 a53d 34af 90bd f2bb 95bc 0ca2 7ebe
000000b0: 7a1c af3d 56c1 6bbe 379b 10bd 6324 603e
000000c0: 2ec6 373e 74c0 cb3c bba1 963c 890b 2bbc
000000d0: 7b0d 9a3d be4e 263e f9a2 8cbe 8ffe 90bd
000000e0: f61c 1dbe 8e7e 9abd 020f 92be df8f 95bd
000000f0: a28e 6bbd babc c83d cf8a 59be c3ff 75be
00000100: 5b13 3d3e 7abc a63d d1da 0e3e 0ea5 a23d
00000110: b017 40be ff9a 23be 02af 26bd a961 0d3d
00000120: ecc2 ffbd 144d 823d 9d57 20bd a2a2 60bd
00000130: f2c4 e0bd 7ecb 73be b741 093e 3651 de3d
00000140: cf47 fd3d 3dfe 4bbe 9b56 41bd 5541 06bd
00000150: 20d7 883d 32e5 38be 885e 37be 22a0 28be
00000160: e435 a0bd f168 c1bd 317e 45be 9255 c5bb
00000170: 1ee7 3abd cf85 003e f99b 36be 0e81 2bbe
00000180: da9d 00be ba09 4d3e 54e7 953e d883 03bb
00000190: f939 e03d 48aa a63c 6d05 41bd b7f2 7fbd
000001a0: ac2b a0bd 3090 babb abaf 4dbc 40d8 1cbe
000001b0: ee32 5d3d 3afa cfbd 7fb3 543e ab72 f43d
000001c0: 5c67 63bd b623 c73d 14bd 893e fd82 5abd
000001d0: f2c4 693e 5366 b7bd 29a6 053c a650 39be
000001e0: 2bee dbbc 5d34 c23d 7737 5d3e 1234 cf3b
000001f0: f438 053e 7978 973d c496 cd3d 7a98 3fbe
00000200: ced3 49be dce2 14be 2d44 0f3e 7fa1 97bd
00000210: 694b 113e 006e 8d3d 8b67 753d a058 e7bd
00000220: 5680 fa3d 3d20 6cbe 7ee8 0fbe 3440 7abd
00000230: 8848 1ebd 6f18 fabc 669e 62bd 7d7c ebbc
00000240: c2b4 4c3d c1d2 9ebd 7073 20be ffa5 27be
00000250: fd75 48bd 572e c4bd 95c1 16be 15ca 323e
00000260: 51f2 a0bd 3974 9d3c 0a00 f3bc f37b 173a
00000270: 0814 6a3d 1ef4 0c3e 47b2 04be 160a 0fbe
00000280: 3878 af3d 48b6 51be 9475 eebd 77de c43d
00000290: 969d 99bd 2ec2 313e 1826 65be 30a7 f4bd
000002a0: e09d 13bc c138 16bd 0c2d 4b3e fb97 15be
000002b0: df9b 0ebe 3136 1abe 65e7 833d d532 0bbe
000002c0: 9844 46be f15f 963d 238e 12be 4013 be3d
000002d0: 275e 0f3e 5a97 7c3d beb3 013d 57b8 40bd
000002e0: a8a1 bc3c 7d30 2bbe 988c 49bd fb3d 53be
000002f0: 4349 10be 7490 30bd af94 9d3d 60cc b6bd
00000300: 42ef 433e e117 e3bd a786 0c3e 707b 45bd
00000310: 4a10 84bb 971a 053e d2e6 4d3c e978 d33d
00000320: 0c74 8d3d 2147 303d 5efd 4f3e 5a43 cebd
00000330: 5419 733d 77bc 8b3d 1eb8 53be 44f0 2d3e
00000340: dfe5 843e 368a 3fbd 20d0 13bc 2160 4e3d
00000350: dfdb b93d a7c5 863d 2df8 29bd de37 2b3e
00000360: 3fd6 813d ab30 853d 2658 463d f298 503e
00000370: ba1a 253e 9523 6c3e 281f 4abe 1686 1a3e
00000380: 7b20 113d 15cf cfbd bff4 0cbd edf4 52bc
00000390: 3bf3 30be 7455 4b3d 4655 0fbe 208b adbd
000003a0: ca03 45bc c1dd 3dbe 3956 19be 96e5 743e
000003b0: 5a3d 593b e260 97be 1e7a 30be 6223 19be
000003c0: 583b 3bbe b1fa 97be 9436 f83d d236 c93c
000003d0: c565 54be a184 39be 42d7 3a3d 0a7c 50be
000003e0: d93a 563e 8fcf cc3c e6b5 cfbd 2077 a8bc
000003f0: 728e e93d e5da 8ebd 0aeb 99bd 4e3a 3f3e

actor.0.anchors.1.weight f4 [256, 17]
0.05950416 0.3767883 0.05020302 0.046105575 0.28507525 -0.08474005 -0.13624655 -0.18827046
0.19197704 -0.15560916 0.05771635 0.14984624 0.16158922 0.18214525 -0.089828 0.08236299
-0.03873559 -0.2177942 -0.32000807 0.21308656 0.038806967 0.09873168 -0.19762272 0.14715113
-0.1211722 -0.21513626 0.09091546 -0.051199064 -0.024515701 0.01255124 -0.05159744 0.040142756
0.14191972 -0.16186766 0.014891596 -0.40837157 -0.16650695 -0.03606101 -0.20530291 0.08077116
0.13408716 0.06141762 0.058387913 -0.3617167 -0.04663357 -0.044769876 -0.15831617 -0.10960874
0.04012055 0.057041764 -0.066054985 0.53848034 -0.18251832 0.02627959 -0.009161766 -0.058862343
-0.055252694 0.040029608 -0.106577925 0.18009204 0.24054103 -0.03922057 -0.13175078 -0.0558143
0.08163695 0.100208074 0.12091292 0.035607103 0.28346133 -0.02249982 -0.11994808 -0.19298215
-0.27694622 -0.16942449 0.05751075 0.07952118 0.08932313 -0.041087564 0.1762768 -0.17971969
-0.021008251 0.026247758 -0.08905935 -0.15381655 -0.2051925 -0.17597327 -0.4075528 -0.3648383
0.080093816 -0.2189529 0.13901263 0.16256669 -0.061731413 -0.004137247 -0.035085335 -0.039625768
0.25980544 0.16791482 0.11970031 -0.10591601 0.13267149 -0.1164974 0.058947418 -0.3910275
0.08757922 -0.0715344 0.059658352 0.15446106 -0.15311325 -0.22940597 0.053068355 0.13268936
0.037901603 -0.18611716 -0.15769783 0.14423402 0.12195372 0.15338776 -0.11102859 -0.35356134
0.062471177 -0.069878876 0.06072861 -0.019236883 0.10969295 -0.008954457 -0.15870048 -0.013207855
0.05465521 0.2481088 0.10825445 0.107031405 0.18458144 -0.014477119 0.045860026 -0.022339206
-0.33833948 -0.4372439 0.1024471 0.079210006 -0.008261985 0.08558764 -0.2648826 0.051422145
-0.10082729 -0.024411198 -0.19510382 -0.051154543 -0.09548086 -0.17354484 0.056879673 0.030561903
-0.07732454 0.035845503 -0.1907289 0.057518538 0.119327776 -0.03817744 0.15138689 -0.046186604
0.19915918 0.0016396757 -0.21857308 -0.06808891 0.13966551 -0.10376762 -0.049414452 0.07348979
0.033402424 -0.07206324 -0.30803934 -0.231869 0.20898083 -0.18724445 0.21264304 -0.055065732
0.039474785 -0.27235124 0.034585733 -0.20170201 0.10627898 0.14904411 0.1707689 -0.08992041
-0.028138172 -0.09270405 0.04964071 0.32470632 0.20473777 0.0094561875 -0.34156108 -0.03939423
0.06517624 0.36201802 0.0990645 0.24040091 0.032378156 0.16227697 0.047417596 0.07936654
0.15638018 0.16684976 0.21112934 0.059482142 0.2545314 0.2480865 0.021497602 -0.1649998
-0.041177224 0.14021978 -0.18255086 -0.20046578 0.008709271 -0.056873444 0.11469354 0.10448671
0.05574759 0.16612697 0.14730771 0.21121614 0.12368083 -0.11664829 -0.20871742 0.11015986
0.14279388 0.12295966 -0.069482125 0.050871227 0.050233986 -0.1757126 -0.37539837 0.0053765257
0.21149556 0.13722068 0.14115985 -0.20105073 -0.002066182 -0.040386196 -0.2546878 -0.100908965
0.14154477 -0.19689366 0.010477406 -0.10439381 -0.042784013 0.057855204 -0.010768576 -0.2650967
-0.020010684 0.24149252 -0.17946678 -0.006180177 -0.03447334 -0.11548933 0.10862572 -0.22613667
00000000: a2ba 733d 65ea c03e afa1 4d3d 33d9 3c3d
00000010: 62f5 913e 318c adbd 3784 0bbe f9c9 40be
00000020: a195 443e 0258 1fbe fb67 6c3d 4b71 193e
00000030: a577 253e 4984 3a3e bef7 b7bd edad a83d
00000040: 36a9 1ebd 7105 5fbe 19d8 a3be 5d33 5a3e
00000050: 0ef4 1e3d d633 ca3d 9c5d 4abe c9ae 163e
00000060: 2129 f8bd ae4c 5cbe e231 ba3d 1cb6 51bd
00000070: 27d5 c8bc b7a3 4d3c d657 53bd bb6c 243d
00000080: 6753 113e a3c0 25be e1fb 733c 1416 d1be
00000090: cc80 2abe b6b4 13bd ed3a 52be 5a6b a53d
000000a0: 254e 093e 0b91 7b3d 2a28 6f3d ee32 b9be
000000b0: d802 3fbd 9e60 37bd a21d 22be 8c7a e0bd
000000c0: 7255 243d a0a4 693d d647 87bd d9d9 093f
000000d0: 15e6 3abe 4b48 d73c 3b1b 16bc a419 71bd
000000e0: a650 62bd 16f6 233d 8745 dabd 0c6a 383e
000000f0: 6350 763e c0a5 20bd ade9 06be 899d 64bd
00000100: 4631 a73d e439 cd3d 31a1 f73d c1d8 113d
00000110: d821 913e 8b51 b8bc 57a7 f5bd 1d9d 45be
00000120: e5cb 8dbe 9d7d 2dbe 6490 6b3d 00dc a23d
00000130: 0cef b63d 6f4b 28bd e881 343e 7008 38be
00000140: 7f19 acbc 8a05 d73c c064 b6bd 1682 1dbe
00000150: fc1d 52be 5632 34be c3aa d0be 16cc babe
00000160: 3a08 a43d 3035 60be 5459 0e3e e277 263e
00000170: 14da 7cbd be91 87bb a4b5 0fbd a14e 22bd
00000180: 3805 853e ddf1 2b3e 7025 f53d 7eea d8bd
00000190: 09db 073e 3096 eebd d972 713d c234 c8be
000001a0: bc5c b33d a180 92bd 515c 743d 0a2b 1e3e
000001b0: b8c9 1cbe 66e9 6abe 345e 593d b8df 073e
000001c0: b63e 1b3d 7f95 3ebe 8a7b 21be 15b2 133e
000001d0: dfc2 f93d ae11 1d3e f562 e3bd fe05 b5be
000001e0: c7e1 7f3d a81c 8fbd 90be 783d ab96 9dbc
000001f0: b3a6 e03d b7b5 12bc 6182 22be c265 58bc
00000200: 24de 5f3d 3c10 7e3e 82b4 dd3d 4833 db3d
00000210: eb02 3d3e 7031 6dbc b9d7 3b3d b600 b7bc
00000220: d53a adbe 6fde dfbe c9cf d13d db38 a23d
00000230: 475d 07bc 9348 af3d b19e 87be 07a0 523d
00000240: 8a7e cebd fef9 c7bc 4cc9 47be 6d87 51bd
00000250: 788b c3bd bdb5 31be a9fa 683d f55c fa3c
00000260: 545c 9ebd bcd2 123d 704e 43be 8f98 6b3d
00000270: 1f62 f43d f35f 1cbd 2a05 1b3e 2a2e 3dbd
00000280: 62f0 4b3e 63ea d63a 9fd1 5fbe 3372 8bbd
00000290: 7a04 0f3e 1e84 d4bd cf66 4abd d181 963d
000002a0: fbd0 083d e495 93bd 55b7 9dbe 116f 6dbe
000002b0: 12ff 553e 02bd 3fbe 19bf 593e 9b8c 61bd
000002c0: 50b0 213d 9f71 8bbe c5a9 0d3d f98a 4ebe
000002d0: cba8 d93d 059f 183e 0bde 2e3e 3128 b8bd
000002e0: 0682 e6bc 9fdb bdbd 0f54 4b3d e83f a63e
000002f0: c7a6 513e 20ee 1a3c 18e1 aebe d85b 21bd
00000300: 1f7b 853d 6d5a b93e 54e2 ca3d a82b 763e
00000310: f59e 043d ef2b 263e f438 423d ed8a a23d
00000320: 2022 203e aada 2a3e 4a32 583e 8ca3 733d
00000330: f151 823e 630a 7e3e bd1b b03c b5f5 28be
00000340: 73a9 28bd c695 0f3e 9dee 3abe e746 4dbe
00000350: 55b1 0e3c 21f4 68bd 72e4 ea3d 21fd d53d
00000360: 9657 643d 301d 2a3e d5d7 163e 0b49 583e
00000370: 604c fd3d 4ce5 eebd 05ba 55be 7e9b e13d
00000380: 8f38 123e 46d2 fb3d a54c 8ebd 595e 503d
00000390: 27c2 4d3d 01ee 33be 3734 c0be 912d b03b
000003a0: 4b92 583e 9483 0c3e 358c 103e 3ee0 4dbe
000003b0: c868 07bb ff6b 25bd 7066 82be 5ca9 cebd
000003c0: 1df1 103e 7e9e 49be 6da9 2b3c 6ccc d5bd
000003d0: 4a3e 2fbd 94f9 6c3d ae6e 30bc c1ba 87be
000003e0: 72ed a3bc d149 773e 24c6 37be 1583 cabb
000003f0: eb33 0dbd ab85 ecbd 2977 de3d 5f90 67be

actor.0.anchors.1.bias f4 [256]
-0.1619491 -0.1729692 0.1943923 0.10818982 -0.045104135 0.18498342 -0.13047817 -0.023378538
0.1365105 0.17492536 -0.07734929 0.08568758 -0.18166615 -0.18580988 -0.11685241 -0.22373247
0.015682233 -0.25664258 -0.07193556 -0.11636965 0.06448139 -0.17130837 0.13573603 0.04837497
-0.11368932 0.06347865 -0.04061175 -0.2647082 0.0065298025 -0.24496743 -0.0993012 -0.15427572
0.16546445 -0.06002097 -0.116239764 -0.1889918 0.03991895 0.14691415 -0.038171265 -0.18975393
0.04590397 -0.09642624 -0.04032621 -0.20683655 0.0749822 -0.19105963 -0.06406422 0.23058435
0.22081941 -0.022929875 0.017879603 -0.007154725 0.070345975 0.15410051 -0.22586423 -0.030495577
-0.16593246 -0.07478874 -0.31163916 -0.10990135 -0.049268555 0.1392642 -0.27151653 -0.21617638
0.22227062 0.059867613 0.106323734 0.060319353 -0.18938904 -0.14900275 -0.015560167 0.06121017
-0.15048294 0.0637036 -0.06674225 0.018698422 -0.10086744 -0.23229864 0.20075573 0.11810528
0.09506528 -0.20220391 -0.079302035 -0.0016521706 0.061240744 -0.23042119 -0.1730909 -0.16798423
-0.067925364 -0.09430785 -0.20183717 0.059523363 -0.17765158 0.12477362 -0.18024872 -0.15245311
-0.1507516 0.19670139 0.26520944 0.015377754 0.026657682 0.037564997 -0.004043132 -0.012883414
-0.08306635 -0.0053658644 -0.048063867 -0.11225171 0.030589342 -0.04750974 0.21635644 0.095832154
-0.14486758 0.09522135 0.29394224 0.04285827 0.18249038 -0.07721202 -0.0035265454 -0.16383731
-0.023857387 0.15836895 0.24761438 -0.013505352 0.1276251 0.05613028 0.15823558 -0.21310437
-0.12499592 -0.11235147 0.12543035 -0.05459607 0.10064343 0.07429425 0.029027311 -0.08126051
0.10159758 -0.2605392 -0.14632274 -0.052413315 -0.046763714 -0.0955115 0.00261541 0.02759638
0.027607474 -0.11325706 -0.17071874 -0.14741805 -0.014360023 -0.1495317 -0.11820175 0.20004927
-0.07990736 0.042593606 -0.018283188 -0.0012743105 0.11666134 0.11522912 -0.17451023 -0.15445076
0.077113084 -0.20983003 -0.09491231 0.15025684 -0.12293882 0.18915209 -0.23191608 -0.15808733
0.03562505 -0.014358993 0.22691381 -0.16576964 -0.14012925 -0.15873304 0.022686906 -0.17615126
-0.17892917 0.06250286 -0.11987147 0.048305765 0.14836492 0.041179206 -0.02424308 -0.031361926
-0.045979366 -0.1596335 -0.046294946 -0.17155154 -0.10696785 -0.03854101 0.04352841 -0.058353424
0.14601171 -0.13208584 0.0712698 -0.04458069 0.006844776 0.1592905 -0.020258605 0.0557803
0.052982766 0.016968995 0.16158591 -0.17875473 0.081449546 -0.03003319 -0.24655823 0.16991873
0.28679976 -0.062821195 -0.019154273 -0.006472681 0.12263722 0.0967698 -0.031489465 0.19547133
0.021293966 0.03993046 0.054015193 0.13961934 0.14431277 0.23639101 -0.17399222 0.14971748
0.038533427 -0.20607188 -0.042649765 -0.017859038 -0.12815392 0.06985132 -0.13015011 -0.053792126
0.022464612 -0.22398861 -0.12504739 0.25324383 -0.05094876 -0.34267095 -0.15283903 -0.16305831
-0.25186226 -0.2994894 0.12290369 0.028863091 -0.28492793 -0.16882986 0.05850941 -0.24047536
0.24071026 0.04672996 -0.071673535 -0.02828245 0.06348134 -0.0703146 -0.08430279 0.17253664
00000000: fcd5 25be d71e 31be c60e 473e a092 dd3d
00000010: 1dbf 38bd 4b6c 3d3e 129c 05be 5984 bfbc
00000020: 69c9 0b3e a21f 333e 4e69 9ebd f87c af3d
00000030: b106 3abe f244 3ebe 5150 efbd 201a 65be
00000040: 0778 803c a866 83be f352 93bd 3653 eebd
00000050: d20e 843d 766b 2fbe 63fe 0a3e d524 463d
00000060: f2d5 e8bd 1801 823d 8258 26bd d587 87be
00000070: f4f7 d53b bed8 7abe 6d5e cbbd 74fa 1dbe
00000080: 836f 293e 8cd8 75bd 1d0f eebd 1187 41be
00000090: 0e82 233d aa70 163e 7959 1cbd db4e 42be
000000a0: cd05 3c3d 1f7b c5bd 192d 25bd f6cc 53be
000000b0: 4590 993d 23a5 43be 1a34 83bd 4e1e 6c3e
000000c0: 7c1e 623e 6fd7 bbbc 3f78 923c 2f72 eabb
000000d0: 8d11 903d 86cc 1d3e f448 67be dcd1 f9bc
000000e0: 33ea 29be d72a 99bd 2b8f 9fbe f613 e1bd
000000f0: d3cd 49bd 469b 0e3e 3704 8bbe 575d 5dbe
00000100: e99a 633e be37 753d 42c0 d93d 6d11 773d
00000110: 33ef 41be 2d94 18be 12f0 7ebc 84b7 7a3d
00000120: 3318 1abe 0877 823d 29b0 88bd 6f2d 993c
00000130: 9793 cebd b2df 6dbe e992 4d3e 2ee1 f13d
00000140: 96b1 c23d 8b0e 4fbe 1b69 a2bd a58d d8ba
00000150: 93d7 7a3d 88f3 6bbe be3e 31be 0f04 2cbe
00000160: 741c 8bbd 7924 c1bd 67ae 4ebe c5ce 733d
00000170: 4cea 35be 5089 ff3d 1f93 38be ab1c 1cbe
00000180: a15e 1abe 176c 493e 88c9 873e faf2 7b3c
00000190: 3661 da3c c1dd 193d 407c 84bb f414 53bc
000001a0: b11e aabd 22d4 afbb 9ede 44bd 39e4 e5bd
000001b0: 8096 fa3c 9399 42bd 8b8c 5d3e a643 c43d
000001c0: 2b58 14be 6903 c33d 997f 963e 278c 2f3d
000001d0: c2de 3a3e 5621 9ebd 9d1d 67bb f8c4 27be
000001e0: 9170 c3bc 782b 223e a08e 7d3e 8d45 5dbc
000001f0: 27b0 023e dde8 653d 8208 223e 0838 5abe
00000200: dcfd ffbd 8718 e6bd d070 003e 21a0 5fbd
00000210: 251e ce3d 9527 983d afca ed3c e96b a6bd
00000220: 6412 d03d 6565 85be a1d5 15be 58af 56bd
00000230: 4f8b 3fbd 899b c3bd 4c67 2b3b ce11 e23c
00000240: 1229 e23c 51f3 e7bd e5d0 2ebe c2f4 16be
00000250: 4d46 6bbc d71e 19be c213 f2bd b7d9 4c3e
00000260: 78a6 a3bd a276 2e3d a0c6 95bc c406 a7ba
00000270: 24ec ee3d 3ffd eb3d cfb2 32be 5728 1ebe
00000280: 77ed 9d3d afdd 56be 6361 c2bd eedc 193e
00000290: 59c7 fbbd 16b1 413e 697b 6dbe a5e1 21be
000002a0: 93eb 113d fb41 6bbc 185c 683e 84bf 29be
000002b0: 0b7e 0fbe ea8a 22be e4d9 b93c ff60 34be
000002c0: 3539 37be 8001 803d 2c7f f5bd 44dc 453d
000002d0: f9ec 173e 87ab 283d 6c99 c6bc 5d75 00bd
000002e0: dc54 3cbd f776 23be c59f 3dbd 35ab 2fbe
000002f0: f611 dbbd 2edd 1dbd d94a 323d 0004 6fbd
00000300: 1884 153e 8341 07be e7f5 913d 3e9a 36bd
00000310: 254a e03b 0d1d 233e 60f5 a5bc e279 643d
00000320: 7504 593d 9002 8b3c c776 253e 7b0b 37be
00000330: 05cf a63d 2a08 f6bc c379 7cbe 2dff 2d3e
00000340: 6bd7 923e 66a8 80bd 6ce9 9cbc c918 d4bb
00000350: 3929 fb3d 3f2f c63d 19fb 00bd a329 483e
00000360: af70 ae3c 1f8e 233d 093f 5d3d 5ff8 0e3e
00000370: bac6 133e 7c10 723e 042b 32be 8a4f 193e
00000380: 3ad5 1d3d 8204 53be 85b1 2ebd 1e4d 92bc
00000390: c83a 03be 350e 8f3d 1246 05be 2255 5cbd
000003a0: b507 b83c 455d 65be 6c0c 00be 2da9 813e
000003b0: a6af 50bd 9172 afbe d681 1cbe c2f8 26be
000003c0: 17f4 80be ad56 99be eeb4 fb3d 4a72 ec3c
000003d0: 13e2 91be bce1 2cbe 90a7 6f3d 2c3f 76be
000003e0: c07c 763e ea67 3f3d 93c9 92bd 99b0 e7bc
000003f0: 8102 823d 1a01 90bd f1a6 acbd 72ad 303e

actor.2.anchors.0.weight f4 [256, 256]
-0.037467416 -0.045744203 0.009674472 -0.008868212 -0.031441834 0.039927434 -0.013411512 -0.055060416
0.034652095 0.03456842 -0.01872395 -0.00999594 -0.025447961 -0.030026237 -0.0924182 -0.04619538
-0.078004725 -0.100074425 -0.04471633 -0.100490995 -0.00032252184 -0.055604436 0.018167866 -0.09275502
-0.07026137 0.05015493 -0.049089745 0.06508746 -0.028579708 0.0053488486 0.035549644 0.011575513
-0.104332455 -0.00801287 0.016566094 0.03322616 -0.01674549 -0.043967295 0.029694308 0.035644207
0.036440745 0.07655173 0.015326483 -0.07453911 0.10967487 0.031037347 0.021686064 -0.07480247
0.020900438 0.030493945 -0.08393365 -0.07922286 -0.015007989 -0.0348425 -0.02990361 -0.04465644
0.033039853 -0.012179072 0.016008563 -0.06704107 0.001255114 0.05919285 -0.078463584 0.06387636
-0.025603244 0.048418604 -0.017996183 0.04146176 -0.021254385 0.032784157 -0.048790604 -0.06859019
-0.05435519 -0.021662371 0.014987691 -0.015243446 0.047604546 0.018479101 0.015311382 -0.040866125
-0.011131381 -0.053495347 0.059537657 -0.062175095 -0.023360223 0.032983903 -0.07085333 -0.05308641
-0.03263782 -0.07501828 -0.08713639 0.022177948 -0.0702477 -0.021766743 -0.065594375 -0.08851357
0.011483709 -0.01582748 -0.094041064 -0.042430308 0.10470757 -0.101954274 0.04979384 0.029200781
-0.04737597 -0.015672987 -0.016164256 0.013936526 -0.1063887 -0.026325354 0.005786504 -0.06297221
0.061426777 -0.116664216 0.0008446374 -0.08021573 -0.028998725 -0.12788782 0.07405769 0.0016902802
-0.033826817 0.08755174 -0.061755907 0.01845836 0.008797386 -0.0533698 -0.012131874 0.04847863
-0.05433181 -0.035303492 -0.111635946 -0.01392824 0.030461768 0.021693045 -0.030960932 0.002530769
-0.042869624 0.007138551 -0.03555843 -0.07738362 -0.055425555 0.021252234 -0.037606798 -0.068268046
0.03666168 -0.05801712 0.05302447 -0.07640439 -0.07185945 -0.10078639 -0.04969002 0.021483753
0.05061883 0.0067700217 -0.084584065 0.0663857 -0.0028087099 0.038491786 -0.0039085094 -0.029260019
-0.100119166 -0.024599608 0.013316446 0.059965543 -0.02696731 0.013803479 0.007347346 -0.061893396
0.012118573 -0.10535212 -0.066742964 -0.0069208774 -0.05455437 -0.07436832 0.0018216574 0.009320802
-0.043731567 -0.0054089236 -0.054399166 -0.027636176 -0.019183123 -0.0098500885 -0.02839028 -0.018722536
0.06164725 -0.043511316 -0.017129563 -0.09903524 -0.0374046 0.06814421 -0.08022828 0.013415521
-0.08112512 -0.07370749 -0.007582146 -0.03154961 -0.020735085 0.00014206508 -0.06731272 0.019767152
-0.09188071 -0.034130286 0.08767222 -0.007971149 0.046178278 -0.010270209 0.0030029959 -0.042186145
0.012952548 -0.07280958 -0.018784098 -0.044253446 -0.14244099 -0.08381798 -0.04094206 -0.022945559
0.004905529 0.04055828 -0.062770404 -0.033613022 -0.06220977 -0.03155678 -0.042644333 0.0043330276
-0.04521909 -0.0509443 -0.026122475 -0.08021424 -0.034544837 0.0036007978 -0.040733937 0.037701696
0.033133604 0.06273107 -0.0053414456 -0.065846 -0.038103554 0.054902934 -0.033437245 0.058813058
-0.0038361354 0.021257523 0.012111805 0.03557701 0.022908999 -0.03354133 -0.09796237 0.0019543606
-0.025073553 0.0079583265 -0.049819354 -0.05368713 -0.042923585 -0.04014002 -0.021668922 -0.083410084
00000000: 6f77 19bd 465e 3bbd ad81 1e3c fa4b 11bc
00000010: 27c9 00bd f38a 233d f5bb 5bbc 0887 61bd
00000020: 5bef 0d3d 9e97 0d3d f862 99bc 03c6 23bc
00000030: 3e78 d0bc 95f9 f5bc c145 bdbd 5e37 3dbd
00000040: f1c0 9fbd d2f3 ccbd 7828 37bd 39ce cdbd
00000050: 2618 a9b9 7ac1 63bd c7d4 943c 58f6 bdbd
00000060: 31e5 8fbd 426f 4d3d 5412 49bd 934c 853d
00000070: fe1f eabc 6545 af3b 819c 113d 38a7 3d3c
00000080: 41ac d5bd 6a48 03bc 9eb5 873c 2718 083d
00000090: d62d 89bc 0d17 34bd 7a41 f33c a9ff 113d
000000a0: e442 153d 27c7 9c3d ee1b 7b3c f6a7 98bd
000000b0: 389d e03d 0942 fe3c f9a6 b13c 0a32 99bd
000000c0: 6537 ab3c 70ce f93c 68e5 abbd 983f a2bd
000000d0: 11e4 75bc 02b7 0ebd 6af8 f4bc ace9 36bd
000000e0: cc54 073d bb8a 47bc 6424 833c d44c 89bd
000000f0: a382 a43a 3474 723d 84b1 a0bd 9cd1 823d
00000100: e5bd d1bc 9652 463d bb6c 93bc ced3 293d
00000110: ad1d aebc ae48 063d a8d8 47bd 0379 8cbd
00000120: 8ca3 5ebd 4975 b1bc ef8e 753c a6bf 79bc
00000130: fcfc 423d 7c61 973c 97dc 7a3c 3d63 27bd
00000140: 6560 36bc f01d 5bbd c2dd 733d 50ab 7ebd
00000150: f05d bfbc 211a 073d 8d1b 91bd 2371 59bd
00000160: 3caf 05bd 2fa3 99bd 9074 b2bd 87ae b53c
00000170: 07de 8fbd 2b50 b2bc 5856 86bd 9a46 b5bd
00000180: 2b26 3c3c a2a8 81bc 9a98 c0bd 67cb 2dbd
00000190: ec70 d63d 67cd d0bd a0f4 4b3d 7a36 ef3c
000001a0: 4e0d 42bd a364 80bc e76a 84bc 0756 643c
000001b0: 52e2 d9bd 45a8 d7bc b79c bd3b 93f7 80bd
000001c0: a59a 7b3d a6ed eebd a86a 5d3a 2548 a4bd
000001d0: bc8e edbc 06f5 02be 8fab 973d 648c dd3a
000001e0: fd8d 0abd 544e b33d c3f3 7cbd fd35 973c
000001f0: e922 103c 4b9a 5abd c5c4 46bc 8791 463d
00000200: 088b 5ebd 659a 10bd 63a1 e4bd 4633 64bc
00000210: f58a f93c 9db5 b13c c8a1 fdbc 42db 253b
00000220: 0f98 2fbd 82ea e93b b7a5 11bd 4e7b 9ebd
00000230: e805 63bd 2a19 ae3c 9609 1abd 1ed0 8bbd
00000240: 8f2a 163d 5ca3 6dbd 3030 593d e879 9cbd
00000250: 0c2b 93bd 1869 cebd c387 4bbd b2fe af3c
00000260: b155 4f3d 0fd7 dd3b 693a adbd 3af5 873d
00000270: 5512 38bb 90a9 1d3d f412 80bb b5b2 efbc
00000280: 470b cdbd 1e85 c9bc 392d 5a3c 6e9e 753d
00000290: 8cea dcbc fd27 623c 01c2 f03b ee83 7dbd
000002a0: fb8c 463c dac2 d7bd 89b0 88bd 87c8 e2bb
000002b0: 6774 5fbd 6b4e 98bd aec4 ee3a 47b6 183c
000002c0: df1f 33bd 573d b1bb a9d1 5ebd 4365 e2bc
000002d0: ed25 9dbc 4462 21bc bc92 e8bc 0160 99bc
000002e0: d481 7c3d ec38 32bd 4c53 8cbc fdd2 cabd
000002f0: 9135 19bd 318f 8b3d b94e a4bd c6cc 5b3c
00000300: ed24 a6bd f4f3 96bd a773 f8bb 2a3a 01bd
00000310: a0dc a9bc 4ef7 1439 40db 89bd b9ee a13c
00000320: f42b bcbd 33cc 0bbd 7e8d b33d 6c99 02bc
00000330: 6f25 3d3d 6144 28bc e9cd 443b 61cb 2cbd
00000340: ed36 543c 301d 95bd 1ce1 99bc 1a43 35bd
00000350: 0ddc 11be c3a8 abbd ddb2 27bd 53f8 bbbc
00000360: 8fbe a03b 7020 263d c58d 80bd cfad 09bd
00000370: accf 7ebd af41 01bd d3ab 2ebd 12fc 8d3b
00000380: a737 39bd f8aa 50bd cdfe d5bc 5d47 a4bd
00000390: e37e 0dbd 5dfb 6b3b a1d8 26bd 186d 1a3d
000003a0: 1ab7 073d 2679 803d 4b07 afbb 45da 86bd
000003b0: 7912 1cbd e6e1 603d 7ef5 08bd f6e5 703d
000003c0: ac67 7bbb 4224 ae3c 9870 463c 33b9 113d
000003d0: a7ab bb3c a262 09bd 7fa0 c8bd bb14 003b
000003e0: 0d67 cdbc a463 023c 610f 4cbd 09e7 5bbd
000003f0: a4d0 2fbd dd69 24bd 0683 b1bc e8d2 aabd

actor.2.anchors.0.bias f4 [256]
-0.035776928 0.0023090835 -0.018176075 0.0018825326 -0.046422716 0.022152105 0.05259368 0.01696775
-0.016179599 -0.023512019 0.003727442 0.027869372 -0.08005503 0.01235026 0.03103504 0.0698652
0.025808593 0.02600261 -0.056531508 0.009983765 0.055714097 -0.012225212 -0.067806244 -0.04778478
0.13581686 0.023356127 -0.10357149 0.0025165307 -0.04112952 0.035657246 -0.021706467 0.027476298
-0.07308287 -0.06366761 -0.036873568 0.10911921 0.06077176 0.03371162 -0.043486048 -0.011969862
-0.030229386 -0.025331581 -0.0011303744 -0.009384274 -0.050092664 0.029735735 0.012920331 -0.035188563
-0.04105946 0.0146769015 -0.03728511 -0.03614122 -0.014110451 0.031873707 -0.00901017 0.011862369
-0.13648969 -0.00718003 -0.051968817 -0.037453115 0.015682992 -0.032144774 -0.029740939 -0.080480956
-0.029518165 -0.014394119 0.051948186 0.026878722 0.05188719 0.04310164 -0.044205558 0.04155171
-0.0076932344 -0.032208916 0.06534292 0.0009998374 0.07010449 0.08159498 -0.028565949 -0.030476326
0.006633296 -0.09035764 -0.038412973 -0.0612241 -0.014622256 -0.03704988 0.0067815236 -0.0008598233
-0.089696564 -3.2708012e-05 -0.03368105 -0.066650026 0.08606556 -0.0980485 -0.011992954 0.0067153783
0.02684656 -0.03476549 0.0795437 -0.044095863 0.027566742 -0.05030215 -0.011783132 0.037926115
-0.09362915 -0.027745342 -0.12842712 -0.02221909 0.028828736 0.03269959 0.104559116 -0.006740028
-0.048531275 -0.005889455 0.12026422 -0.013460003 -0.04235542 0.006340054 0.11053992 -0.048991423
0.016786203 0.037879508 0.09819863 0.0482874 0.001789272 -0.023802407 0.018582521 0.051048465
-0.067112386 -0.083905175 0.0038197527 0.04590348 -0.015072933 -0.01877477 -0.049012072 -0.054789957
-0.00440696 -0.07478881 0.0020701487 -0.0796883 0.020183852 0.028314905 -0.062230363 0.04275388
-0.06278122 -0.034333088 0.026418455 -0.0938151 -0.044650353 0.08262164 0.021887155 -0.05210654
-0.064866826 0.03809619 -0.026664576 -0.022221051 0.04282198 0.015668137 -0.06338612 0.0068466547
0.06044963 -0.08369212 -0.108141005 0.030829247 -0.0154089285 0.07289348 -0.011835249 -0.048828445
0.02952028 -0.094572775 -0.03796184 -0.051747978 0.0056188093 0.027541922 -0.06409842 0.06784693
0.040901374 -0.007717534 -0.037064284 -0.024574643 0.027590279 -0.0015632147 -0.023180619 -0.051954273
-0.056637194 0.039889723 0.03505908 -0.012691818 0.09767866 0.10239639 0.009811009 0.00922816
-0.025039528 -0.050042316 -0.06353007 0.010723379 -0.009700072 0.014621203 0.008201646 -0.002293992
0.049998738 0.03884638 0.017515903 -0.07537212 -0.036252044 0.070087954 -0.025008934 -0.02880554
-0.01343125 -0.015183806 0.10577393 -0.019321986 -0.071250364 -0.014917838 -0.07377699 -0.020206362
0.047309563 0.01027003 -0.0010856844 -0.04870496 0.053919688 0.006640074 0.041823216 0.05531241
0.04321902 -0.014348653 -0.04141709 -0.06659395 -0.08801536 -0.054474108 -0.014365982 0.031969525
-0.12760776 0.007910505 -0.1259464 -0.07079766 0.08372617 -0.11527125 -0.0050174473 0.017945869
-0.040002923 0.05455741 -0.056355845 -0.08215115 0.09414689 0.09709518 -0.09444295 -0.04344549
-0.06649005 0.0043346705 -0.035738453 -0.004627268 0.027544312 -0.0857672 -0.06865593 0.0033235003
00000000: d48a 12bd fe53 173b fee5 94bc 50bf f63a
00000010: bf25 3ebd 5578 b53c 786c 573d f3ff 8a3c
00000020: 148b 84bc 479c c0bc 1948 743b 4f4e e43c
00000030: e4f3 a3bd bf58 4a3c 323d fe3c 7c15 8f3d
00000040: 8b6c d33c 6d03 d53c 958d 67bd f292 233c
00000050: 7734 643d 414c 48bc 00de 8abd f9b9 43bd
00000060: 9313 0b3e 5955 bf3c 4a1d d4bd 61ec 243b
00000070: 6d77 28bd 550d 123d c3d1 b1bc f915 e13c
00000080: 79ac 95bd 2a64 82bd bd08 17bd e479 df3d
00000090: cfeb 783d 3215 0a3d 6d1e 32bd 3d1d 44bc
000000a0: 9ea3 f7bc 2d84 cfbc 1229 94ba 7fc0 19bc
000000b0: f72d 4dbd 5b98 f33c ccaf 533c e221 10bd
000000c0: f72d 28bd 6377 703c 46b8 18bd d108 14bd
000000d0: 852f 67bc 018e 023d 649f 13bc 625a 423c
000000e0: f4c3 0bbe 7546 ebbb 41dd 54bd 7068 19bd
000000f0: 9e79 803c 3daa 03bd 45a3 f3bc 33d3 a4bd
00000100: 14d0 f1bc 50d5 6bbc 9fc7 543d c430 dc3c
00000110: aa87 543d 588b 303d e310 35bd 2032 2a3d
00000120: 8717 fcbb 7fed 03bd 82d2 853d fa0c 833a
00000130: f192 8f3d 451b a73d 2303 eabc 7da9 f9bc
00000140: 1f5c d93b 6d0d b9bd ec56 1dbd 1fc6 7abd
00000150: 3092 6fbc 9dc1 17bd 8b37 de3b c465 61ba
00000160: d5b2 b7bd f62f 09b8 24f5 09bd cf7f 88bd
00000170: 2443 b03d a7cd c8bd 187e 44bc ad0c dc3b
00000180: 51ed db3c 4266 0ebd cfe7 a23d dd9d 34bd
00000190: a6d3 e13c a109 4ebd 0a0e 41bc 6a58 1b3d
000001a0: a4c0 bfbd 334a e3bc 6682 03be cf04 b6bc
000001b0: 3e2a ec3c 01f0 053d 1723 d63d 74db dcbb
000001c0: bbc8 46bd 54fc c0bb 164d f63d 5887 5cbc
000001d0: e07c 2dbd 3ac0 cf3b c162 e23d 3bab 48bd
000001e0: 3883 893c 8b27 1b3d 5d1c c93d 02c9 453d
000001f0: 0186 ea3a 44fd c2bc 5f3a 983c 3218 513d
00000200: 3872 89bd 7ad6 abbd d154 7a3b 4a05 3c3d
00000210: 77f4 76bc 8ccd 99bc e2c0 48bd 6f6b 60bd
00000220: 4368 90bb e02a 99bd 55ab 073b 9f33 a3bd
00000230: 9b58 a53c a9f4 e73c 44e5 7ebd b11e 2f3d
00000240: 7193 80bd daa0 0cbd 846b d83c 2222 c0bd
00000250: 4ae3 36bd 8935 a93d b14c b33c ab6d 55bd
00000260: e6d8 84bd c00a 1c3d ab6f dabc ec08 b6bc
00000270: 1a66 2f3d 775a 803c 95d0 81bd e759 e03b
00000280: 089a 773d c666 abbd 0879 ddbd 9e8d fc3c
00000290: bb75 7cbc 2d49 953d a2e8 41bc 5600 48bd
000002a0: 84d4 f13c 5faf c1bd e07d 1bbd b0f5 53bd
000002b0: fd1d b83b 999f e13c 0846 83bd 55f3 8a3d
000002c0: 3388 273d 5ee3 fcbb b8d0 17bd c350 c9bc
000002d0: 0205 e23c c8e4 ccba 48e5 bdbc 01ce 54bd
000002e0: 67fc 67bd 6863 233d 1c9a 0f3d 58f1 4fbc
000002f0: c00b c83d 33b5 d13d 5bbe 203c b531 173c
00000300: b21f cdbc 2cf9 4cbd 0e1c 82bd 1db1 2f3c
00000310: 0ded 1ebc c58d 6f3c 3260 063c cd56 16bb
00000320: 7acb 4c3d 621d 1f3d 837d 8f3c b35c 9abd
00000330: 067d 14bd 468a 8f3d 89df ccbc 99f9 ebbc
00000340: bf0e 5cbc 80c5 78bc 01a0 d83d 2449 9ebc
00000350: b6eb 91bd f369 74bc 6418 97bd d087 a5bc
00000360: acc7 413d a143 283c 864d 8eba da7e 47bd
00000370: e4da 5c3d fa94 d93b d24e 2b3d 448f 623d
00000380: 6d06 313d 9d16 6bbc f7a4 29bd 6962 88bd
00000390: 6641 b4bd 3e20 5fbd 4c5f 6bbc 7af2 023d
000003a0: 9cab 02be 109b 013c 18f8 00be 5dfe 90bd
000003b0: a078 ab3d 5513 ecbd 6669 a4bb 3703 933c
000003c0: 1bda 23bd 9777 5f3d 63d5 66bd dd3e a8bd
000003d0: 16d0 c03d d6d9 c63d 4e6b c1bd e6f3 31bd
000003e0: ef2b 88bd da09 8e3b 7c62 12bd 56a0 97bb
000003f0: 9ca4 e13c b7a6 afbd 7b9b 8cbd 15cf 593b

actor.2.anchors.1.weight f4 [256, 256]
-0.10399283 -0.048591617 -0.014647553 -0.026896864 -0.088968635 -0.03359376 0.026290268 -0.108743116
0.028991863 -0.006678907 -0.027723003 -0.041554365 -0.08546093 -0.070636295 -0.08130931 -0.06231309
-0.13609445 -0.10787814 -0.048183948 -0.100725494 -0.041667517 -0.09286563 -0.06188468 -0.12370561
-0.092735976 0.011454522 -0.05466999 0.041865293 -0.048135106 -0.01850388 -0.011662384 -0.05446723
-0.11561474 0.025306914 0.012458893 -0.007480132 -0.07593697 -0.04475954 -0.035544917 -0.023270704
-0.0003156372 0.039503187 0.024028808 -0.1144184 0.07247234 0.012710886 -0.029425096 -0.08220742
-0.03108055 -0.001536946 -0.085617766 -0.076900095 -0.069183506 -0.06787483 -0.058868166 -0.07738545
0.003065543 -0.06849422 -0.013997985 -0.06333043 -0.022083536 -0.018663015 -0.09829282 0.0034873437
-0.0031399447 0.00065190997 -0.0425569 0.01737769 -0.054136917 -0.046613816 -0.08490092 -0.1281681
-0.08494687 -0.0009834267 -0.040964164 -0.04171707 -0.018942736 0.014983236 -0.021241674 -0.087606885
-0.08134649 -0.09421091 0.051157665 -0.13107163 -0.083319664 0.0034486803 -0.04738061 -0.09573123
-0.112235464 -0.1070257 -0.092812255 -0.003245499 -0.06028269 -0.042286683 -0.06449561 -0.11376136
-0.013349243 -0.019654358 -0.13857363 -0.08516522 0.0848323 -0.10151191 0.0031380751 -0.013083589
-0.08056245 -0.0033417442 -0.021528263 -0.047955032 -0.14503808 -0.06417913 -0.037332293 -0.11260754
0.011766734 -0.15566939 -0.02363844 -0.05204631 -0.026072873 -0.13405097 0.02370189 -0.098127596
-0.08753285 0.05888007 -0.07741444 -0.037093982 0.011246726 -0.06446497 -0.030215066 0.06296254
-0.07626399 -0.05780052 -0.079189226 -0.040068574 0.0020523479 -0.019476587 -0.0676299 -0.022374686
-0.07736477 -0.023584437 -0.0706827 -0.10437845 -0.13176285 -0.024873162 -0.0395769 -0.090925165
-0.038822174 -0.121809706 0.016188947 -0.16855003 -0.092207566 -0.07866745 -0.10314435 -0.04436708
-0.007876439 -0.025231728 -0.104350336 0.031105608 0.007865998 -0.025120694 -0.01332094 -0.058011595
-0.12333932 -0.077383116 -0.010579161 0.00824938 -0.06531312 -0.031903412 -0.025301417 -0.109288745
-0.032960527 -0.08606585 -0.10148311 -0.053902633 -0.10612421 -0.08363009 -0.060097374 -0.018366314
-0.06495742 -0.034554705 -0.05819481 -0.035215206 -0.07100319 -0.024256608 -0.022520939 -0.038675882
0.027330123 -0.05768432 -0.038084783 -0.13210009 -0.07844977 0.03789939 -0.11105974 -0.010410279
-0.102266945 -0.13873002 -0.02950727 -0.10713842 -0.10217358 -0.07521773 -0.122946374 -0.0138589395
-0.102928735 -0.058516942 0.036235306 -0.03393084 0.018177597 -0.03413853 -0.040019292 -0.04011497
-0.023732755 -0.1175391 -0.035484336 -0.05085986 -0.10519972 -0.11177751 -0.08117471 -0.077745326
-0.040186428 0.00028956434 -0.10116992 -0.036012486 -0.09842483 -0.05865577 -0.088476494 -0.03829286
-0.014731866 -0.074858144 -0.042048793 -0.1717671 -0.033359684 -0.004607308 -0.09136899 0.007722503
-0.01583747 0.043950338 -0.05937088 -0.08583712 -0.07733613 -0.0051989504 -0.08145045 0.06111541
-0.017253017 -0.022690548 -0.020058258 -0.0034954022 -0.044196278 -0.07054444 -0.08951554 -0.024088766
-0.027593551 -0.018180953 -0.10817267 -0.12541948 -0.07823428 -0.06404284 -0.05720437 -0.09451326
00000000: 31fa d4bd 0108 47bd 4afc 6fbc d056 dcbc
00000010: 3035 b6bd 9c99 09bd b05e d73c b6b4 debd
00000020: 5880 ed3c bcda dabb 5a1b e3bc e934 2abd
00000030: 2406 afbd c3a9 90bd 7f85 a6bd 033c 7fbd
00000040: 585c 0bbe 37ef dcbd 885c 45bd 2b49 cebd
00000050: 8fab 2abd 5630 bebd ca7a 7dbd 5e59 fdbd
00000060: 5cec bdbd bfab 3b3c a4ed 5fbd f17a 2b3d
00000070: 5129 45bd 7395 97bc 9513 3fbc 0819 5fbd
00000080: 6cc7 ecbd 7250 cf3c 6220 4c3c e51b f5bb
00000090: d884 9bbd c855 37bd 8c97 11bd 34a2 bebc
000000a0: 1c7c a5b9 18ce 213d 10d8 c43c 3254 eabd
000000b0: 616c 943d 5241 503c e60c f1bc 5d5c a8bd
000000c0: a39c febc 5a73 c9ba 5e58 afbd cc7d 9dbd
000000d0: 15b0 8dbd f501 8bbd bf1f 71bd 437c 9ebd
000000e0: 47e7 483b b346 8cbd ce57 65bc 62b3 81bd
000000f0: 88e8 b4bc 2ee3 98bc bf4d c9bd eb8b 643b
00000100: 88c7 4dbb f0e4 2a3a 2550 2ebd a85b 8e3c
00000110: acbe 5dbd 21ee 3ebd 89e0 adbd 803e 03be
00000120: a0f8 adbd 53e6 80ba 0aca 27bd 85df 2abd
00000130: cc2d 9bbc 3f7c 753c 0503 aebc 3d6b b3bd
00000140: fd98 a6bd a6f1 c0bd b38a 513d a437 06be
00000150: 80a3 aabd 4103 623b 2c12 42bd bc0e c4bd
00000160: b5db e5bd 4a30 dbbd 5a14 bebd 70b2 54bb
00000170: fbea 76bd cd34 2dbd 4616 84bd b7fb e8bd
00000180: c9b6 5abc 2d02 a1bc 3fe6 0dbe 1a6b aebd
00000190: 8fbc ad3d 7ae5 cfbd 2aa8 4d3b 8d5c 56bc
000001a0: edfd a4bd 2a01 5bbb 0a5c b0bc 7f6c 44bd
000001b0: dd84 14be 5970 83bd bfe9 18bd c89e e6bd
000001c0: 42c9 403c cc67 1fbe 67a5 c1bc 832e 55bd
000001d0: c796 d5bc a844 09be 772a c23c 1ff7 c8bd
000001e0: 6c44 b3bd 3a2c 713d 768b 9ebd dcef 17bd
000001f0: 3044 383c 3606 84bd 9685 f7bc 81f2 803d
00000200: 4b30 9cbd 3dc0 6cbd f62d a2bd f21e 24bd
00000210: af80 063b 5d8d 9fbc 8c81 8abd 1e4b b7bc
00000220: 6c71 9ebd 2634 c1bc 17c2 90bd 5ec4 d5bd
00000230: d7ec 06be cdc2 cbbc 631b 22bd f936 babd
00000240: 0004 1fbd 5e77 f9bd af9e 843c 6198 2cbe
00000250: 52d7 bcbd 661c a1bd 583d d3bd 41ba 35bd
00000260: 2e0c 01bc c5b2 cebc a1b5 d5bd 30d1 fe3c
00000270: 63e0 003c eac9 cdbc 1240 5abc 919d 6dbd
00000280: 5399 fcbd 0a7b 9ebd 3854 2dbc 6828 073c
00000290: e3c2 85bd 27ad 02bd eb44 cfbc c7d2 dfbd
000002a0: 9e01 07bd 4b43 b0bd 60d6 cfbd 02c9 5cbd
000002b0: a657 d9bd 4146 abbd aa28 76bd f474 96bc
000002c0: 6508 85bd 3c89 0dbd ae5d 6ebd d23d 10bd
000002d0: 1f6a 91bd cbb5 c6bc d57d b8bc 9a6a 1ebd
000002e0: 6ce3 df3c 6546 6cbd cafe 1bbd 3f45 07be
000002f0: 46aa a0bd 643c 1b3d 4a73 e3bd e08f 2abc
00000300: 5571 d1bd 3e0f 0ebe 3bb9 f1bc 636b dbbd
00000310: 6240 d1bd c10b 9abd 4fcb fbbd 9b10 63bc
00000320: 4dcc d2bd 76af 6fbd 796b 143d 11fb 0abd
00000330: 2fe9 943c d8d4 0bbd 45eb 23bd 984f 24bd
00000340: 326b c2bc 57b8 f0bd 0658 11bd 6e52 50bd
00000350: f372 d7bd 9beb e4bd ed3e a6bd f138 9fbd
00000360: 869a 24bd abd0 9739 2d32 cfbd d481 13bd
00000370: f592 c9bd 0841 70bd 2a33 b5bd f9d8 1cbd
00000380: ed5d 71bc 3a4f 99bd 5b3b 2cbd b7e3 2fbe
00000390: 2aa4 08bd e7f8 96bb aa1f bbbd 0d0d fd3b
000003a0: 95bd 81bc 4505 343d e12e 73bd 5fcb afbd
000003b0: 6862 9ebd f55b aabb 7ecf a6bd 2754 7a3d
000003c0: 3356 8dbc 87e1 b9bc 3751 a4bc 1e13 65bb
000003d0: 2807 35bd 9a79 90bd ec53 b7bd ce55 c5bc
000003e0: df0b e2bc 39f0 94bc a289 ddbd f76d 00be
000003f0: 4b39 a0bd e428 83bd 214f 6abd 2b90 c1bd
