models/halfcheetah/n_anchors=1.pt (torch, 575347 bytes, 12 tensors)

action_var f4 [6]
0	0xbf9326e5	-1.1496245
1	0xbfa798a0	-1.3093452
2	0xbf7b8dc7	-0.9826321
3	0xbfd41f38	-1.6572027
4	0xbfaea1fb	-1.3643183
5	0xbf807c76	-1.0037982

actor.0.anchors.0.weight f4 [256, 17]
0	0xbcfb2fc6	-0.030662429
1	0xbe4437be	-0.19161889
2	0xbe6c0706	-0.23049554
3	0x3e7f252c	0.24916524
4	0xbec09232	-0.37611538
5	0x3d041c65	0.03225364
6	0x3e4265b1	0.18984105
7	0x3e6c9418	0.23103368
8	0xbdfe00f9	-0.12402529
9	0xbd8e860d	-0.06959162
10	0xbe7d951b	-0.2476391
11	0xbd4cfa18	-0.050043195
12	0xbdbf43ba	-0.0933909
13	0x3df8017d	0.12109659
14	0xbc8e098b	-0.017338535
15	0x3d6597d9	0.056053016
16	0x3d970643	0.07374241
17	0xbd6cb838	-0.057792872
18	0xbec316b8	-0.3810327
19	0xbcb02216	-0.021500628
20	0x3d9f398c	0.07774648
21	0xbd825a64	-0.06364897
22	0x3d327742	0.043570764
23	0xbd2923c0	-0.04129386
24	0x3d68b5ff	0.05681419
25	0xbe40b5af	-0.18819307
26	0xbe728a71	-0.23685624
27	0xbceaa31a	-0.028642226
28	0xbdbdc3a3	-0.0926583
29	0xbdf3ebeb	-0.11910232
30	0x3dbbfb58	0.091787994
31	0xbd20bc4e	-0.03924208
32	0x3dcd2a09	0.10017783
33	0x3d5a2d4b	0.05326585
34	0x3ebc77bc	0.368101
35	0x3f0ae60f	0.5425729
36	0x3e42eed8	0.19036424
37	0xbebc6eda	-0.36803323
38	0x3d8fd6b1	0.07023371
39	0x3d92b127	0.071626954
40	0xbdaf4eed	-0.08559976
41	0x3d9b02f2	0.07568921
42	0x3e69ddbd	0.22838493
43	0x3e60f753	0.21969347
44	0xbd5a77dd	-0.053336967
45	0xbde0736d	-0.10959516
46	0xbdf0338f	-0.11728584
47	0xbda69f82	-0.081358925
48	0xbd462426	-0.048374318
49	0xbd84f4b4	-0.06491986
50	0xbd0b3270	-0.033983648
51	0x3e0c4218	0.13697088
52	0x3cd6d9d1	0.02622691
53	0xbe3e8f03	-0.18609242
54	0x3d968446	0.07349448
55	0x3cff9d83	0.031203037
56	0xbe8580e3	-0.26074895
57	0x3e57c3ba	0.21070758
58	0xbdd6b185	-0.10483078
59	0xbe12a337	-0.14320074
60	0x3ea5e117	0.32398292
61	0x3e32fac4	0.17478472
62	0xbbcce0a2	-0.0062523643
63	0x3cdc34c6	0.026880633
64	0xbd818f23	-0.06326129
65	0xbd3a99ee	-0.045556955
66	0x3d7de359	0.061984394
67	0xbdfa3354	-0.12216821
68	0xbea44d06	-0.32090014
69	0xbef7f3e0	-0.4842825
70	0x3e527980	0.20554161
71	0x3e0f7cff	0.14012526
72	0xbdb688f9	-0.08912844
73	0x3d75a8ee	0.059975557
74	0xbdc56396	-0.09638135
75	0x3e5cd7ca	0.21566692
76	0xbdb6140b	-0.08890542
77	0x3e481eb5	0.19542964
78	0xbe3edb5e	-0.1863837
79	0xbd53ea5b	-0.05173717
80	0x3cf94102	0.030426506
81	0x3dc18fb2	0.09451236
82	0xbd9ec8ed	-0.07753167
83	0x3db4e49c	0.08832666
84	0xbd727350	-0.059192
85	0xbe9afe0b	-0.30271944
86	0xbf519da0	-0.8188114
87	0x3dec7f1d	0.115476824
88	0x3db60c1c	0.088890284
89	0x3e8da3f3	0.27664146
90	0x3da4f7d5	0.08055083
91	0xbecfa02b	-0.40551886
92	0xbe47a60c	-0.19496936
93	0xbe3274b5	-0.17427333
94	0x3c96a6a8	0.018390015
95	0x3d62c73e	0.055365793
96	0xbe6cc312	-0.23121288
97	0xbe2ad86e	-0.16684124
98	0x3dc9e5ab	0.09858259
99	0xbd39d240	-0.045366526
100	0xbdbbdda4	-0.09173134
101	0xbc6de575	-0.014520039
102	0xbe3d1e98	-0.18468702
103	0xbd825e94	-0.063656956
104	0x3ea8712e	0.3289885
105	0xbe6b2a29	-0.22965302
106	0x3eb17fa2	0.3466769
107	0x3dad4d8c	0.084620565
108	0x3e4d6540	0.20058155
109	0x3da501e0	0.08056998
110	0x3e56b5cc	0.20967788
111	0xbe8ab347	-0.27089903
112	0x3e265c0c	0.1624605
113	0xbdc42fd9	-0.09579439
114	0x3d262072	0.040558286
115	0xbd891a4f	-0.06694471
116	0xbd4ead16	-0.050458036
117	0xbde5b071	-0.11215294
118	0x3d5e0c91	0.054211203
119	0xbe80ef1c	-0.25182426
120	0x3dd0855b	0.101816855
121	0x3cc1688c	0.023609422
122	0xbd926516	-0.07148187
123	0xbdfc8e2a	-0.12331803
124	0xbd56e62b	-0.0524656
125	0xbe872a16	-0.26399297
126	0xbe5b2e48	-0.21404374
127	0xbda5d273	-0.08096781
128	0xbda4ef2c	-0.08053431
129	0xbdf65246	-0.12027411
130	0x3df9b1f6	0.121921465
131	0x3da81fda	0.082092
132	0xbd988a9b	-0.07448312
133	0x3c16d747	0.0092066
134	0xbddd2294	-0.10797611
135	0x3da61144	0.08108762
136	0xbe82b5f8	-0.25529456
137	0xbee0318e	-0.43787807
138	0xbe57d4d4	-0.21077281
139	0x3d48ea46	0.049051546
140	0xbe96ab66	-0.29427642
141	0xbe123f5e	-0.14281985
142	0xbe2fa4f6	-0.17152771
143	0xbd6c1e3a	-0.057646014
144	0x3e20163a	0.15633479
145	0xbe9d57bf	-0.30731007
146	0x3e29317d	0.16522785
147	0x3dfcbf55	0.12341181
148	0x3e80c007	0.25146505
149	0xbcb96bc1	-0.022634389
150	0x3a837e38	0.0010032123
151	0xbd9b0881	-0.07569981
152	0x3e52973a	0.20565501
153	0x3e28daed	0.16489764
154	0x3e2cd5f0	0.16878486
155	0x3e6e7e58	0.23290384
156	0x3e0dfd1c	0.13866085
157	0xbd1a1b54	-0.03762372
158	0xbe5a6d7e	-0.2133083
159	0xbd796a9c	-0.060892686
160	0xbd542a4a	-0.051798142
161	0xbe3f6744	-0.18691736
162	0xbda04bdc	-0.07826969
163	0xbe971f2f	-0.2951598
164	0xbd2ffe28	-0.04296699
165	0xbd722d96	-0.059125505
166	0x3d23e581	0.040013794
167	0x3e351f8e	0.17687818
168	0x3d3f04ff	0.046635624
169	0x3d475e33	0.04867382
170	0x3f1bdecc	0.60886836
171	0x3eed8f5d	0.4639844
172	0x3ce0c8a3	0.027439421
173	0xbeb8e62b	-0.36113104
174	0x3d2badaa	0.041913666
175	0xbe3fafa2	-0.18719342
176	0x3e84a8a4	0.25909913
177	0x3d1ab107	0.037766483
178	0x3da53536	0.0806679
179	0x3c26bf00	0.010177374
180	0x3b40a927	0.0029397698
181	0xbe426168	-0.1898247
182	0xbd9f9785	-0.07792572
183	0xbce699be	-0.028149482
184	0x3e22c1b3	0.15894203
185	0xbc182eba	-0.009288484
186	0xbc86f5dc	-0.016474657
187	0xbeade42a	-0.33963138
188	0xbf280444	-0.6563151
189	0x3d4fe398	0.05075416
190	0xbc3aae86	-0.011394149
191	0x3c581fcc	0.013191175
192	0x3da80e53	0.08205857
193	0xbe2fd10f	-0.17169593
194	0xbe5ddbeb	-0.21665923
195	0xbdb36cdc	-0.08760998
196	0x3dfb773d	0.12278602
197	0x3eab2bfd	0.33431998
198	0xbe0aa5f4	-0.13539869
199	0xbe0b7028	-0.13617003
200	0xbd2552cc	-0.040362164
201	0xbd0a28ab	-0.03373019
202	0xbe02bfbd	-0.12768455
203	0xbe1cfea7	-0.15331517
204	0x3d4fbfa6	0.05071988
205	0x3e39e556	0.18153891
206	0xbe331f1b	-0.17492335
207	0xbe82aadd	-0.25520983
208	0x3e4dbe21	0.2009206
209	0xbd92ddec	-0.071712345
210	0x3eb44297	0.35207054
211	0x3ef0c8e2	0.4702826
212	0xbe826d33	-0.25473937
213	0x3e89bfda	0.26904184
214	0x3dc9a8a3	0.09846618
215	0xbcd74ea5	-0.026282618
216	0x3dc2669b	0.09492227
217	0x3dea40b8	0.11438125
218	0xbd8c697a	-0.068560556
219	0xbdb10390	-0.086432576
220	0x3e188f8b	0.14898507
221	0xbefbec6d	-0.49203816
222	0xbeb9bb92	-0.36275917
223	0x3e1cd1ae	0.15314361
224	0x3b25bbde	0.002528898
225	0x3d501eea	0.050810732
226	0x3e953610	0.2914281
227	0x3e286c8e	0.1644766
228	0xbe034c26	-0.12822017
229	0x3cca2657	0.024676485
230	0x3e6895c0	0.22713375
231	0x3e1573b3	0.14594917
232	0x3e3fb751	0.18722273
233	0x3e19c1cf	0.15015338
234	0xbcc1e021	-0.023666443
235	0xbe59c742	-0.21267417
236	0xbe176843	-0.14785866
237	0xbc303ed3	-0.010757166
238	0x3ecf752a	0.40519077
239	0x3d8ff758	0.07029599
240	0xbe3468d9	-0.17618121
241	0xbe01d2fe	-0.12678143
242	0xbe916979	-0.28400782
243	0xbdb8e88a	-0.09028728
244	0xbe34f6f9	-0.17672338
245	0xbe824af5	-0.25447813
246	0x3d571ad4	0.05251582
247	0xbda00f7a	-0.07815452
248	0xbc9ba8a1	-0.019001307
249	0x3c64eb3c	0.0139721
250	0x3de081ee	0.10962282
251	0x3dcaf7a6	0.099105164
252	0x3e07ef2d	0.13274832
253	0xbda25e9b	-0.07928201
254	0xbddb5b6b	-0.10710796
255	0xbebb845e	-0.36624426

actor.0.anchors.0.bias f4 [256]
0	0xbe61b18b	-0.22040384
1	0xbdc3b27b	-0.09555527
2	0xbdff1b42	-0.12456371
3	0xbbadfe9c	-0.005309893
4	0x3e2eb776	0.17062172
5	0xbd2948a0	-0.041329026
6	0xbd0cd57d	-0.034383286
7	0x3dd98b76	0.10622303
8	0xbd05b853	-0.03264649
9	0xbe749637	-0.23885427
10	0xbea59430	-0.3233962
11	0xbdc0007d	-0.09375093
12	0xbe51b267	-0.20478211
13	0xbda005b8	-0.07813591
14	0xbe7dc424	-0.24781853
15	0xbe20790b	-0.15671174
16	0xbea21df1	-0.31663468
17	0xbda61bfb	-0.081108056
18	0xbd8e441c	-0.069465846
19	0x3cefb44b	0.029260775
20	0xbe0beb2a	-0.13663927
21	0xbe19acbd	-0.150073
22	0xbe4f6597	-0.20253597
23	0xbd830f8e	-0.06399451
24	0x3d5ecd2e	0.054394893
25	0xbe2d4e4c	-0.16924399
26	0xbe585b8c	-0.21128672
27	0x3d618b8c	0.055064723
28	0x3e5e31b6	0.2169865
29	0x3df2f9b0	0.1186403
30	0xbea14f71	-0.3150592
31	0xbe1e3417	-0.15449558
32	0xbe44f6ce	-0.19234774
33	0xbe007575	-0.12544806
34	0x3d3c8ebd	0.046034563
35	0x3dac3c2c	0.084099144
36	0xbc396a6a	-0.011316875
37	0x3d9f846f	0.077889316
38	0x3d7567de	0.05991351
39	0xbe217b3a	-0.15769663
40	0xbe609daa	-0.21935144
41	0xbcf0a45e	-0.029375251
42	0xbddea8e8	-0.1087206
43	0x3e2ec07d	0.17065616
44	0x3da30113	0.07959189
45	0x3e712d85	0.2355252
46	0x3e19d960	0.15024328
47	0xbd9caf69	-0.07650644
48	0xbd937d84	-0.072016746
49	0x3e4f70ad	0.20257826
50	0xbe93c09a	-0.2885788
51	0xbe4355d6	-0.19075713
52	0x3d50e5e6	0.0510005
53	0xbe09139a	-0.13386384
54	0xbd7af6d0	-0.061270535
55	0xbe033df4	-0.12816602
56	0x3c53687e	0.012903331
57	0x3e006cab	0.12541454
58	0xbe5ee21e	-0.21765944
59	0xbd075b44	-0.033046022
60	0x3e4b69e7	0.19864617
61	0x3de90f6c	0.113798946
62	0x3e0545b3	0.1301487
63	0x3da46219	0.08026523
64	0xbe03cf87	-0.12872134
65	0x3ddcecde	0.10787366
66	0x3d1ab541	0.037770513
67	0x3de025f2	0.109447375
68	0xbdc92a2e	-0.09822498
69	0xbdc0fbac	-0.094230026
70	0xbe4d7c75	-0.20067008
71	0xbe30769c	-0.17232746
72	0xbe358a61	-0.17728569
73	0xbe870d03	-0.26377115
74	0xbe790517	-0.24318348
75	0xbeb2cb74	-0.34920847
76	0xbe378a01	-0.17923738
77	0xbd85ea48	-0.06538826
78	0xbeb48bb9	-0.3526285
79	0x3d59889f	0.053108808
80	0x3e1b4c49	0.15165819
81	0xbcb6ce8b	-0.022315284
82	0xbe857291	-0.2606397
83	0x3dbbf183	0.09176924
84	0xbd86d15b	-0.065829
85	0xbe1e2aed	-0.15446062
86	0x3e7ac5ad	0.2448947
87	0xbe30968b	-0.17244928
88	0x3e08a9c0	0.13346004
89	0x3d424ca6	0.04743638
90	0x3e13ac3a	0.14421168
91	0x3e5b2691	0.2140143
92	0xbe69b609	-0.22823347
93	0xbe297aed	-0.16550799
94	0xbd8d78ce	-0.06907807
95	0xbc990e53	-0.018683588
96	0xbe644463	-0.22291712
97	0xbd2652ea	-0.040606417
98	0xbe127efa	-0.1430625
99	0xbe225722	-0.15853551
100	0xbe8f785c	-0.28021514
101	0x3e7097d2	0.23495415
102	0xbe7c03cb	-0.24610822
103	0xbdedc444	-0.116097
104	0x3dab8409	0.08374793
105	0x3e3116eb	0.17293899
106	0xbd162fa4	-0.036666527
107	0xbe25222b	-0.16126315
108	0x3cc0c9a9	0.023533659
109	0xbdc3656d	-0.0954083
110	0xbceafd02	-0.028685097
111	0xbe81618e	-0.2526974
112	0x3ca4dec5	0.020125756
113	0x3e304600	0.17214203
114	0x3dbe2c34	0.09285775
115	0xbeb6b392	-0.35683876
116	0xbe85e30d	-0.26149788
117	0xbd296b28	-0.041361958
118	0x3e660781	0.224638
119	0xbe064190	-0.13110948
120	0xbdce5941	-0.100756176
121	0xbdbfe411	-0.09369672
122	0x3e29f3c7	0.165969
123	0xbea00387	-0.3125269
124	0x3e5018e4	0.20321995
125	0xbe4070b1	-0.18792988
126	0xbe035ced	-0.12828417
127	0x3e2e8b06	0.1704522
128	0xbe06b69d	-0.13155599
129	0x3e3175b9	0.17330064
130	0xbe2f0b89	-0.17094244
131	0xbe8ab80e	-0.27093548
132	0x3d9768f1	0.07393063
133	0xbdaf12a7	-0.085484795
134	0xbd5b9bf0	-0.05361551
135	0xbe27d54a	-0.16389957
136	0xbe338f1a	-0.17535058
137	0xbe30c4b5	-0.17262538
138	0xbe285e74	-0.16442281
139	0xbbbab443	-0.0056977584
140	0xbe84a577	-0.2590749
141	0x3ec44ca7	0.3833973
142	0xbe2142c0	-0.1574812
143	0x3dd96205	0.10614399
144	0x3e8191f7	0.25306675
145	0xbce787a3	-0.028262919
146	0xbd4108af	-0.047127422
147	0xbe6e80e6	-0.23291358
148	0xbdbb1710	-0.09135258
149	0xbe74ca40	-0.23905277
150	0xbe800d89	-0.25010327
151	0x3d8cccf1	0.06875027
152	0x3e67eb52	0.22648361
153	0x3c90875a	0.017642666
154	0x3e184c2c	0.14872807
155	0xbd74bf99	-0.059753034
156	0x3dad6f95	0.08468548
157	0xbdb84afd	-0.08998678
158	0xbdcf29d6	-0.101154014
159	0x3deda20c	0.116031736
160	0xbdb92873	-0.09040918
161	0xbcc2e24c	-0.023789547
162	0xbc93aefd	-0.018027777
163	0xbe908376	-0.28225297
164	0x3dc290cb	0.09500273
165	0x3e71c36a	0.23609701
166	0x3e60ddee	0.2195966
167	0xbe35f321	-0.17768528
168	0xbdb42233	-0.087955855
169	0xbe90980b	-0.28241
170	0x3d851351	0.06497825
171	0x3d9df5b5	0.077128805
172	0xbc841aee	-0.016126122
173	0x3ca29e58	0.019850895
174	0x3e07340a	0.13203445
175	0xbc65f3c2	-0.014035167
176	0x3d9d471b	0.07679578
177	0x3dfcf7b7	0.12351935
178	0xbe846b4d	-0.25863114
179	0xbeb3a15e	-0.3508405
180	0xbe204049	-0.15649523
181	0x3e63db6f	0.22251676
182	0x3e1b5a19	0.15171088
183	0x3e4a345a	0.19746533
184	0xbda83cc2	-0.08214714
185	0xbde797a6	-0.113082215
186	0x3e6840f8	0.22681034
187	0xbdf95c0e	-0.12175761
188	0x3e5a6522	0.21327642
189	0xbe6d0abe	-0.23148629
190	0xbe92dbd5	-0.28683344
191	0xbce83cc8	-0.028349295
192	0xbe058d46	-0.13042173
193	0xbe9a6244	-0.30153096
194	0xbdeb4f97	-0.1148979
195	0x3c13badc	0.009016719
196	0x3e519592	0.20467213
197	0xbd00c091	-0.031433646
198	0x3d965efb	0.07342335
199	0xbda9f372	-0.08298387
200	0xbeb4cc91	-0.35312322
201	0xbd2da57b	-0.042394143
202	0xbe206cfd	-0.15666576
203	0xbe67a8d5	-0.22622998
204	0x3e1b096e	0.15140316
205	0xbe6e3663	-0.23262934
206	0xbd887874	-0.066635996
207	0x3dd98cd6	0.106225654
208	0xbda0c9ed	-0.07851014
209	0x3e429ae7	0.19004403
210	0x3e099832	0.13436964
211	0x3de03cb8	0.10949081
212	0xbe29892c	-0.16556233
213	0x3debf2f8	0.11520952
214	0xbe72dc42	-0.23716834
215	0x3d9211a3	0.0713227
216	0xbe7b49b4	-0.24539834
217	0xbdb7fb49	-0.08983476
218	0xbde606e0	-0.1123178
219	0x3dd8055e	0.10547899
220	0xbd64db38	-0.055873126
221	0xbe37fab0	-0.17966723
222	0xbd8256b5	-0.06364194
223	0xbe7b8393	-0.2456191
224	0x3e4f72c1	0.20258619
225	0xbe1a261b	-0.15053599
226	0xbe677832	-0.22604445
227	0x3dac5a14	0.084156185
228	0xbcd4bc84	-0.025968798
229	0x3e0aabdd	0.13542123
230	0x3e3faf4a	0.18719211
231	0xbe083ee2	-0.13305238
232	0xbe88b1cb	-0.26698145
233	0xbe5a8402	-0.2133942
234	0xbdec71f2	-0.11545171
235	0x3cbca503	0.023027902
236	0xbb08a046	-0.0020847484
237	0xbd7214e8	-0.05910197
238	0x3d16ffc2	0.036865003
239	0xbe7f7522	-0.24947026
240	0xbea08040	-0.31347847
241	0xbd08ddaf	-0.03341454
242	0xbe8641a3	-0.26221952
243	0x3c982a4f	0.018574862
244	0xbdfb2fc0	-0.12264967
245	0xbd351e0b	-0.044218104
246	0xbe0dc3d8	-0.1384424
247	0xbe522fcd	-0.20526047
248	0xbdbf45a4	-0.09339455
249	0xbdac65cf	-0.08417856
250	0xbdcd7498	-0.10032004
251	0xbddc7d6a	-0.10766108
252	0x3d5954d9	0.053059433
253	0xbe740eaf	-0.23833726
254	0x3e533bb0	0.20628238
255	0xbe766e0e	-0.2406542

actor.2.anchors.0.weight f4 [256, 256]
0	0xbce78898	-0.028263375
1	0xbcbb003b	-0.022827258
2	0xbd2a981f	-0.04164898
3	0xbd101808	-0.035179168
4	0x3c5bb143	0.013408962
5	0xbba705f2	-0.0050971443
6	0x3cc93b75	0.024564484
7	0xbcf1684a	-0.029468674
8	0xbcc98b88	-0.024602666
9	0xbd3f01ce	-0.04663258
10	0xbd04ff36	-0.03246995
11	0xbd23b102	-0.03996373
12	0x3cc7bab3	0.024381017
13	0x3d04985c	0.032371864
14	0xbda2587e	-0.07927035
15	0x3b1db24e	0.0024062577
16	0xbd29d05c	-0.041458473
17	0x3c47e945	0.012201612
18	0xbd0170ba	-0.031601645
19	0xbd270586	-0.040776752
20	0xbd075fc9	-0.033050332
21	0x3c1b42c7	0.00947637
22	0x3d613108	0.0549784
23	0x3a836fae	0.001002779
24	0x3b273d87	0.002551885
25	0x3cad21fb	0.021134367
26	0xbd56100c	-0.052261397
27	0x3cae4df6	0.021277409
28	0xbce27600	-0.027644157
29	0xbd3e8d4a	-0.046521463
30	0xbcedff67	-0.02905245
31	0xbda272eb	-0.07932075
32	0xbdb230c4	-0.087007076
33	0x3c85fd4e	0.016356137
34	0xbd3be386	-0.04587128
35	0x3c4713c9	0.012150713
36	0xbc6ad91d	-0.01433399
37	0xbd19ddfc	-0.037565216
38	0xbcba6ccd	-0.022756958
39	0xbb10daf7	-0.002210317
40	0x3c873ca8	0.016508415
41	0xbd61baed	-0.055109907
42	0xbdbc5f29	-0.09197838
43	0x3cdc1667	0.026866151
44	0xbd4a5d0c	-0.049405143
45	0x3d204821	0.039131287
46	0xbd3eb916	-0.04656323
47	0xbc206d88	-0.009791739
48	0xbda1811a	-0.07885952
49	0x3d25eb7c	0.04050778
50	0xbb131662	-0.002244376
51	0xbd35038b	-0.044192832
52	0xbc9c0193	-0.01904372
53	0x3c020c4a	0.0079375
54	0x3d244086	0.040100597
55	0x3c559607	0.013036258
56	0xbc48597f	-0.012228369
57	0xbcc18220	-0.023621619
58	0xbc0bf2b0	-0.008541748
59	0xbd955153	-0.07290902
60	0xbd0e67e0	-0.03476703
61	0xbca797b6	-0.020458084
62	0xbd640b88	-0.05567506
63	0xbc826a79	-0.01591991
64	0xbd9d058a	-0.07667072
65	0xbc16ca5e	-0.009203522
66	0x3c528a76	0.0128503945
67	0xbd6c7a88	-0.057734042
68	0x3d269d41	0.040677313
69	0xbda0381e	-0.078232035
70	0xbc18dbc6	-0.009329742
71	0xbc721e23	-0.014777693
72	0x3cdec6b5	0.02719436
73	0xbd9d433a	-0.07678838
74	0xbd7be4b8	-0.06149742
75	0x3d3a290d	0.045449305
76	0x3c9f7d85	0.019469032
77	0x3c610c29	0.013735809
78	0x3c1b8c25	0.009493862
79	0xbdb017bd	-0.08598278
80	0xbc52a0d7	-0.01285573
81	0xbd175d10	-0.036953986
82	0xbccfee0e	-0.025382068
83	0xbca41925	-0.020031521
84	0xbd5509ab	-0.052011173
85	0xbceddee2	-0.029036943
86	0xbc991a8c	-0.018689416
87	0xbd4b5c90	-0.04964882
88	0x3b0808bc	0.002075716
89	0xbd660c5a	-0.056164123
90	0xbc9abd2c	-0.018889032
91	0x3b9ba7e8	0.0047502406
92	0xbbb2f4bd	-0.005461304
93	0x3cadbf3a	0.021209348
94	0x3b67068a	0.00352517
95	0xbc0fd124	-0.00877789
96	0x3c9345f3	0.01797769
97	0xbd0027c1	-0.031287912
98	0xbd275a49	-0.040857587
99	0x3d188ebd	0.0372455
100	0x3cc8e9a6	0.024525475
101	0x3d24f677	0.04027411
102	0x3c69bdbb	0.014266427
103	0xbce00945	-0.02734817
104	0xbcc84952	-0.024449024
105	0x3d6ae1ce	0.05734425
106	0xbd3c76f4	-0.04601188
107	0x3d4392d5	0.04774745
108	0x3b09e9e3	0.0021043948
109	0xbd38a2d9	-0.04507718
110	0xbd0f98b1	-0.035057727
111	0xbd8ab225	-0.067722596
112	0xbd905846	-0.07048087
113	0x3d2f1cd9	0.04275212
114	0xbd76e484	-0.060276523
115	0xbd8d7dd7	-0.06908768
116	0xbd4afbbf	-0.04955649
117	0xbaaa9403	-0.0013014082
118	0xbd95ab45	-0.07308058
119	0xbd9c3e67	-0.0762909
120	0x3b0c11f0	0.0021372996
121	0xbd75da3e	-0.060022585
122	0x3bdf104a	0.0068073617
123	0xbca22586	-0.019793283
124	0xbc68613e	-0.014183341
125	0x3d0db306	0.03459456
126	0x3c397687	0.011319763
127	0xbd14c8c8	-0.036324292
128	0x3d23507c	0.039871678
129	0x3cbb9c21	0.022901597
130	0x3c5b235f	0.013375132
131	0x3b49cfb1	0.003079396
132	0xbcd1da91	-0.025616916
133	0xbd5adc60	-0.053432822
134	0xbc9025d1	-0.017596157
135	0x3c52fef3	0.012878167
136	0x3cdeae85	0.027182827
137	0xbb570523	-0.0032809458
138	0x3cb604bf	0.02221906
139	0x3d79a934	0.06095238
140	0xbbfeae7a	-0.007772264
141	0xbd8e5486	-0.06949715
142	0xbd68cb2c	-0.056834385
143	0xba7b30c0	-0.00095821545
144	0xbc44e258	-0.012016855
145	0xbd275e53	-0.04086144
146	0xbd21fb31	-0.039546195
147	0x3c07b6b4	0.008283306
148	0xbd3c3b02	-0.04595471
149	0x3d1ae080	0.037811756
150	0xbcd544cc	-0.026033781
151	0x3d0f35a7	0.034963276
152	0xbd144411	-0.036197726
153	0xbd74c5b0	-0.059758842
154	0x3d27da1c	0.04097949
155	0x3ccac25c	0.02475088
156	0xbc16613e	-0.009178458
157	0x3c1127ab	0.008859555
158	0xbcdc3571	-0.026880952
159	0xbcced4dd	-0.025247985
160	0xbcd0bae3	-0.02547974
161	0xbca16b86	-0.019704591
162	0xbccbcbdf	-0.024877487
163	0x3d2a8992	0.041635104
164	0x3aea80d0	0.0017891172
165	0x3d27baf8	0.04094979
166	0xbcdc2912	-0.026875053
167	0xbc55011f	-0.013000756
168	0xbc89acca	-0.016806025
169	0xbd9a1341	-0.07523204
170	0x3c85eb57	0.01634757
171	0xbd5703b3	-0.052493762
172	0xbcb7ee99	-0.02245264
173	0x3d1e13dc	0.038593158
174	0xbd0f9f7c	-0.035064206
175	0xbda74dd0	-0.081691384
176	0xbbd18b06	-0.0063947467
177	0xbd9601f1	-0.07324589
178	0xbce3a44b	-0.027788302
179	0x3bb359d9	0.005473357
180	0xbc90d229	-0.017678337
181	0xbc461901	-0.012090922
182	0xbd5b4eaf	-0.053541835
183	0x3c9e1c96	0.01930074
184	0x3c40e8cb	0.011774252
185	0xbcd908ff	-0.026493547
186	0xbc3c3294	-0.011486668
187	0xbd7cb994	-0.06170042
188	0x3be682b0	0.007034622
189	0x3d733f26	0.059386395
190	0x3d2d77d3	0.0423506
191	0xbd31e494	-0.04343088
192	0xbd9d51a1	-0.07681585
193	0x3cb02822	0.021503512
194	0xbd6a7a0e	-0.057245307
195	0x3bfa6702	0.007641674
196	0x3d3e6475	0.046482522
197	0xbc827396	-0.015924256
198	0xbd3c4e7d	-0.04597329
199	0x3c47498c	0.012163531
200	0x3c56c0b5	0.013107468
201	0x3d40dbfd	0.047084797
202	0x3cc382bc	0.02386605
203	0xbd6ec476	-0.05829283
204	0xbc7e66b6	-0.015527418
205	0xbd414634	-0.04718609
206	0xbd33a82c	-0.043861553
207	0x3c7b54b0	0.015340015
208	0xbd7dbc72	-0.061947294
209	0xbd061cbc	-0.032742247
210	0xbd02a2e6	-0.031893633
211	0xbc8947ea	-0.016757924
212	0x3d45f62d	0.048330475
213	0xbcde2b8b	-0.027120372
214	0xbd730618	-0.059331983
215	0xbbbf9044	-0.005846055
216	0xbc4b811d	-0.01242092
217	0xbca781d7	-0.020447655
218	0x3bc581a7	0.0060274187
219	0x3c502c5d	0.0127058895
220	0xbdc512fd	-0.09622762
221	0xbd25e9a5	-0.040506024
222	0x3d455af3	0.04818244
223	0xbc982ac1	-0.018575074
224	0xbc7dfd6e	-0.015502317
225	0xbd825339	-0.0636353
226	0xbd40b906	-0.047051452
227	0xbc9009e6	-0.017582845
228	0xbd23c9e4	-0.03998746
229	0x3d74f303	0.059802067
230	0xbd166018	-0.036712736
231	0xbaf533d0	-0.0018707458
232	0xbda6b447	-0.08139854
233	0xbc9d0fdb	-0.0191726
234	0x3b7e99de	0.0038849036
235	0x3c93b8a2	0.018032376
236	0xbd2e2d11	-0.042523447
237	0xbc66ad02	-0.014079334
238	0x3d04853c	0.032353625
239	0xbad7431b	-0.0016423197
240	0xbdbb357c	-0.09141061
241	0x3bbef7bf	0.0058278735
242	0x3c98693c	0.018604867
243	0xbd1f487c	-0.038887486
244	0x3c8158df	0.015789447
245	0xbc847cc1	-0.016172769
246	0xbd3dec68	-0.046368033
247	0x3cbe48c4	0.023228057
248	0x3bf31b19	0.007419002
249	0xbd7dd99e	-0.061975114
250	0xbd8b4e94	-0.06802097
251	0x3d22a7fb	0.03971098
252	0x3b07707c	0.002066641
253	0x3c02d036	0.007984212
254	0xbcd7cd19	-0.026342915
255	0xbd6f97b2	-0.058494277

actor.2.anchors.0.bias f4 [256]
0	0xbcdf8181	-0.027283432
1	0xbd079faa	-0.033111252
2	0x3be38c09	0.0069441837
3	0x3cadb946	0.02120651
4	0xbda988ac	-0.08278021
5	0xbc0f03eb	-0.008728961
6	0xb8e439f2	-0.0001088268
7	0xbd570ef7	-0.052504506
8	0xba0d7f0e	-0.0005397656
9	0xbcec9f1e	-0.028884467
10	0xbdc0762c	-0.093975395
11	0xbcee1020	-0.029060423
12	0xbd19eb68	-0.037578017
13	0x3d21eccd	0.03953247
14	0x3ce37fec	0.027770959
15	0x3c4cd375	0.012501587
16	0xbd8ca411	-0.06867231
17	0x3d522cbe	0.0513122
18	0xbd87d30b	-0.0663205
19	0xbc798730	-0.015229985
20	0xbd134e90	-0.035963595
21	0xbdd76856	-0.105179474
22	0x3d33e902	0.043923385
23	0xbd0e3869	-0.034721766
24	0x3cd13799	0.025539206
25	0x3cdc3033	0.026878452
26	0xbc9ff7e4	-0.019527383
27	0x3be3b940	0.0069495738
28	0xbc81b9b2	-0.015835617
29	0xbda046ff	-0.078260414
30	0x3d34c51c	0.04413329
31	0xbce712f8	-0.028207287
32	0xbca42556	-0.020037334
33	0xbc52ab79	-0.012858265
34	0xbc0f41f6	-0.008743754
35	0xbd65bd4f	-0.056088742
36	0xbce14793	-0.02749995
37	0x3e0a0388	0.1347791
38	0xbd4e4c5b	-0.050365787
39	0xbd59d7f9	-0.053184483
40	0xbd367906	-0.04454901
41	0x3b1a01fc	0.0023499718
42	0x3d9f86ab	0.07789358
43	0xbcb810ba	-0.022468913
44	0xba55ef85	-0.00081609964
45	0x3b8e926f	0.0043509523
46	0xbd1d1bb7	-0.03835651
47	0xbcb4aa96	-0.022053998
48	0x3c1b6929	0.009485521
49	0xbd77b7e6	-0.060478114
50	0x3d9430b9	0.072358556
51	0x3d9b722d	0.07590137
52	0x3cbb7090	0.022880822
53	0xbd722187	-0.059114005
54	0x3d7a29ac	0.061074898
55	0xbd364411	-0.044498507
56	0x3d1e52a5	0.038653035
57	0x3d012692	0.031530924
58	0xbce676e7	-0.028132869
59	0x3c90650b	0.017626306
60	0x3d06c6f0	0.032904565
61	0x3cabae17	0.020957036
62	0x3dc8eba3	0.09810569
63	0x3b9d9f6d	0.004810265
64	0x3cb2549b	0.021768859
65	0xbcf13a20	-0.029446661
66	0xbd91babb	-0.07115694
67	0xbca70b0e	-0.020391013
68	0x3e084203	0.13306431
69	0x3d3b9ab0	0.04580182
70	0xbd0e5db5	-0.034757335
71	0xbc02551e	-0.007954864
72	0x3d051f21	0.03250039
73	0xbbaa2aa0	-0.0051930696
74	0x3c20ce4b	0.009814809
75	0x3d522959	0.051308963
76	0x3d98230d	0.074285604
77	0xbd3c9706	-0.046042465
78	0x3d6253b6	0.055255614
79	0xbc09ae85	-0.008403425
80	0xbd34684c	-0.044044778
81	0x3ba56b35	0.0050481805
82	0xbb9df2b4	-0.004820192
83	0x3cf9379f	0.03042203
84	0xbcefd4f4	-0.029276349
85	0x3e2efdad	0.17088957
86	0x3d753cd6	0.05987247
87	0xbdb52480	-0.088448524
88	0x3af856eb	0.0018946802
89	0xbde7e653	-0.11323228
90	0x3d913956	0.07091014
91	0x3d475481	0.048664574
92	0xbd006bd6	-0.03135284
93	0xbcabcc8a	-0.020971555
94	0xbcd99e50	-0.026564747
95	0xbd38c8dc	-0.04511343
96	0xbd6a5331	-0.057208244
97	0x3d0a11cd	0.033708382
98	0xbdca749c	-0.09885523
99	0xbdd653d7	-0.1046521
100	0x3d040c01	0.03223801
101	0xbc216e53	-0.0098529635
102	0x3e087b54	0.13328296
103	0xba82cc8e	-0.0009979175
104	0xbc6d3479	-0.0144778425
105	0xbd5453ce	-0.051837735
106	0x3c2750c0	0.010212123
107	0x3d56d433	0.052448463
108	0xbbac96b3	-0.005266988
109	0xbd91ece9	-0.07125265
110	0xbd190030	-0.037353694
111	0xbd1aa241	-0.037752394
112	0xbca1260d	-0.019671464
113	0xbdbaf270	-0.091282725
114	0x3db4be5b	0.0882537
115	0xbd978693	-0.07398715
116	0xbd838e2f	-0.06423604
117	0x3e06aff6	0.13153061
118	0xbda0f0d2	-0.07858433
119	0x3da6b103	0.08139231
120	0xbd9d4a0d	-0.0768014
121	0x3d9a6495	0.07538716
122	0x3e172115	0.14758714
123	0xbd3de564	-0.046361342
124	0x3d0fe9af	0.035134967
125	0x3dc9ee89	0.0985995
126	0xbd4c1839	-0.049827788
127	0xbd0d7b10	-0.03454119
128	0x3de2678b	0.110549055
129	0xbdac576d	-0.08415113
130	0x3d8d3b5a	0.06896086
131	0x3c56f038	0.013118796
132	0xbda31c6a	-0.07964404
133	0x3cbf8d5c	0.023382835
134	0xbce097b7	-0.027416093
135	0x3d07f01b	0.033187967
136	0x3b5ce88b	0.0033707942
137	0xbd1b8bc3	-0.037975084
138	0xbd6de1b2	-0.058076568
139	0xbd5884d3	-0.052861046
140	0x3d8e8832	0.06959571
141	0xbcf9a10f	-0.030472307
142	0x3d4cfcc0	0.05004573
143	0x3cc47d49	0.023985522
144	0x3dbb7a14	0.09154144
145	0x3e17aaac	0.148112
146	0x3d4bb5d9	0.04973397
147	0xbdebeb57	-0.11519497
148	0x3ccbd326	0.024880957
149	0xbd7d1909	-0.061791454
150	0xbad508f0	-0.0016253274
151	0xbdb552b0	-0.08853662
152	0xbd574afb	-0.05256174
153	0x3e6ff840	0.23434544
154	0xbd63de66	-0.055632018
155	0x3d33835a	0.04382644
156	0xbdbdee72	-0.092739955
157	0xbb870beb	-0.004121294
158	0x3d81407d	0.06311128
159	0x3d756914	0.059914663
160	0xbccad9f0	-0.024762124
161	0xbd4dee54	-0.050276116
162	0xbd97010a	-0.07373245
163	0xbd089980	-0.033349514
164	0xbd1da0f0	-0.03848356
165	0xbc880f39	-0.016608821
166	0xbbc52d17	-0.006017338
167	0x3c2eef30	0.010677144
168	0xbcf457a8	-0.029826954
169	0xbdafd764	-0.085860044
170	0x3d7a9aac	0.061182663
171	0xbd8318e9	-0.064012356
172	0xbd7b006f	-0.06127971
173	0xbd7ef183	-0.062242042
174	0x3ccab24a	0.024743218
175	0xbd28a869	-0.041176233
176	0xbc3b0226	-0.011414086
177	0x3d6fa939	0.058510993
178	0x3c198ebf	0.009372412
179	0xbcc86c01	-0.024465563
180	0xbb89d40a	-0.004206185
181	0xbd4fc110	-0.050721228
182	0xbc289b84	-0.010290984
183	0xbd0478c0	-0.03234172
184	0xbceb76db	-0.028743198
185	0x3c38ebef	0.01128672
186	0xbd4139b6	-0.047174178
187	0x3c8638a2	0.016384427
188	0xbda87ceb	-0.08226951
189	0x3ce93d0a	0.028471489
190	0xbd5f4635	-0.054510314
191	0xbca88186	-0.020569574
192	0xbd2a0aeb	-0.04151432
193	0xbce98cb2	-0.028509472
194	0x3d2e2510	0.042515814
195	0xbd04b84b	-0.032402318
196	0x3d0e96ff	0.03481197
197	0xbb08e2de	-0.0020887177
198	0x3ab8582f	0.0014064367
199	0xbd8c3a83	-0.06847098
200	0xbcfe37c4	-0.03103245
201	0x3e348f8b	0.17632882
202	0xbbc2a630	-0.0059402213
203	0xbd6edd8c	-0.058316752
204	0xbd0d2da8	-0.03446737
205	0x3cbdf52a	0.023188192
206	0x3e3e8006	0.18603525
207	0xbd0caa89	-0.034342322
208	0xbcd7fc39	-0.026365386
209	0xbd3faea6	-0.046797417
210	0x3de8b73e	0.11363076
211	0xb9ecda19	-0.00045175923
212	0xbd887db2	-0.066645995
213	0xbd3545f8	-0.04425618
214	0xbd67d3de	-0.056598537
215	0x3cb97f7c	0.022643797
216	0x3dc48216	0.095951244
217	0xbd28d257	-0.04121622
218	0xbc8e4c7f	-0.01737046
219	0xbda0c1ea	-0.07849486
220	0xbd2772d1	-0.04088098
221	0xbd50f0ca	-0.051010884
222	0x3d1fff8f	0.03906208
223	0xbb2b6938	-0.0026155245
224	0xbd4d03c4	-0.05005242
225	0xbd9cd5fa	-0.07658
226	0xbd4b3d4a	-0.049618997
227	0x3d0c0623	0.03418554
228	0x3d89026d	0.06689916
229	0xbcd2e4e0	-0.025743902
230	0xbd3dd712	-0.046347685
231	0xbd84f13c	-0.06491324
232	0x3d94a3b1	0.07257784
233	0xbc9c43fd	-0.019075388
234	0xbdd3fd8c	-0.103510946
235	0xbd827f53	-0.063719414
236	0xbd2fcdf6	-0.04292103
237	0x3b64f332	0.0034934995
238	0x3d1ab5b7	0.037770953
239	0x3dc1b1ed	0.09457765
240	0xbe2e4ff9	-0.17022695
241	0xbd4b11bf	-0.04957747
242	0x3cda8417	0.026674313
243	0x3cc4b640	0.024012685
244	0xbd22aed2	-0.039717503
245	0x3c1f3a50	0.009718493
246	0xbcb11435	-0.02161608
247	0x3ce18f2d	0.027534092
248	0xbd9c9716	-0.07646005
249	0x3e031021	0.12799121
250	0x3ce334dd	0.027735168
251	0xbd3a66d8	-0.045508236
252	0xbd795420	-0.060871243
253	0xbda86624	-0.08222607
254	0xbc6c96ff	-0.014440297
255	0x3d78a772	0.060706563

actor.4.anchors.0.weight f4 [6, 256]
0	0xbcaa9380	-0.020822287
1	0x3d05f285	0.032701988
2	0x3cbea1e6	0.023270559
3	0xbc337314	-0.01095273
4	0xbd0ef749	-0.0349038
5	0x3d25ff24	0.040526524
6	0xbd2be43d	-0.04196571
7	0x3d258862	0.040413268
8	0x3d3aafc2	0.045577772
9	0xbce782dc	-0.02826064
10	0x3ac85df4	0.0015286789
11	0x3d009f15	0.031401712
12	0x3d3afc6c	0.045650885
13	0x3ca7589d	0.020427996
14	0xbdb616da	-0.08891077
15	0x3d1f7355	0.03892835
16	0xbc8a3360	-0.0168702
17	0xbd94486f	-0.07240378
18	0x3d291159	0.04127631
19	0x3bf2dca2	0.0074115554
20	0x3d5751e2	0.052568324
21	0xbe120507	-0.1425973
22	0xbd156f0c	-0.036482856
23	0xbcc10206	-0.023560535
24	0xbd05fb2d	-0.032710243
25	0xbd09ac20	-0.033611417
26	0xbab8d63f	-0.0014101936
27	0xbae3f353	-0.0017391242
28	0xbbf97bff	-0.0076136584
29	0x3be33b52	0.0069345618
30	0xbc95fa28	-0.01830776
31	0xbbdd1ead	-0.0067480416
32	0xbd69df42	-0.05709768
33	0x3cade1a9	0.021225767
34	0xbdc46dcc	-0.095912546
35	0xbd08ec86	-0.03342869
36	0xbced059b	-0.028933337
37	0xbd1a1693	-0.037619185
38	0x3a9b603d	0.0011854243
39	0x3c1635d3	0.009168106
40	0xbcc39fcf	-0.023879914
41	0x3d5833b1	0.05278367
42	0xbdb778a4	-0.08958557
43	0xbd0534df	-0.032521125
44	0x3d568e55	0.052381832
45	0x3ca2e6a8	0.019885376
46	0x3d8da379	0.069159456
47	0x3bce294d	0.0062915445
48	0xbd0e6a20	-0.034769177
49	0xbc0fb90b	-0.008772145
50	0x3d7c5d01	0.061612133
51	0xbd9d44e5	-0.07679156
52	0x3d22c388	0.039737254
53	0xbc1bdb5c	-0.009512749
54	0x3d9f3be2	0.077750936
55	0x3d0ba01b	0.034088235
56	0xbe0c9c12	-0.13731411
57	0x3d27b414	0.04094322
58	0xbcfb413d	-0.030670756
59	0x3cd925a9	0.026507216
60	0xbc951786	-0.018199693
61	0x3d0a9e7b	0.033842545
62	0x3d7d9fda	0.061920024
63	0x3d9ca8c6	0.076493785
64	0xbd011a34	-0.03151913
65	0x3d6e7b68	0.058223158
66	0xbdafd0a9	-0.08584721
67	0x3c800c5b	0.015630892
68	0x3bb6d72e	0.0055798506
69	0x3d471a19	0.048608873
70	0x3b603bbf	0.00342153
71	0xbc00bcbb	-0.007857497
72	0x3d0f37af	0.034965213
73	0x3d79037c	0.06079434
74	0xbcfaffd6	-0.03063957
75	0xbc685a18	-0.014181636
76	0x3d8f9e7b	0.070126496
77	0x3d6ab718	0.057303518
78	0xbc361a0b	-0.011114608
79	0x3d8878ff	0.06663703
80	0x3c9ded65	0.019278238
81	0x3d5d23ac	0.053989097
82	0xbc9db7f7	-0.01925276
83	0xbda33a8c	-0.07970151
84	0x3d54201e	0.05178844
85	0x3c9ee10b	0.019394418
86	0xbe23d01b	-0.15997355
87	0xbca63c38	-0.020292386
88	0xbbc12541	-0.0058943336
89	0xbcf133a9	-0.029443579
90	0xbd9547db	-0.07289096
91	0xbab9de21	-0.001418058
92	0xbd63a740	-0.055579424
93	0x3c410560	0.011781067
94	0x3ca03762	0.019557659
95	0x3caec38d	0.02133348
96	0x3d7ecf64	0.0622095
97	0xbb2c48be	-0.0026288475
98	0xba2e6dca	-0.0006653933
99	0x3cad6186	0.021164667
100	0x3d29ef15	0.041487772
101	0xbc87a015	-0.016555825
102	0x3c9396e0	0.018016279
103	0xbd29129a	-0.041277505
104	0x3db440dc	0.088014334
105	0x3cd7e33c	0.026353471
106	0xbd62932d	-0.05531614
107	0x3c5f8860	0.013643354
108	0xbc9ca174	-0.019119956
109	0x39681582	0.00022133256
110	0xbc32b67f	-0.010907768
111	0xbca0f700	-0.019649029
112	0xbcebf66b	-0.028804025
113	0xba56280d	-0.000816942
114	0x3c957ff0	0.018249482
115	0x3cf301c1	0.029663922
116	0x3d191f95	0.037383635
117	0xbcd2c79a	-0.025729943
118	0xbc4fd5ee	-0.012685282
119	0xbc58b69e	-0.013227133
120	0xbd6697cb	-0.056297105
121	0x3af1cacc	0.0018447279
122	0x3d0c7057	0.034286823
123	0x3d9f950c	0.077921
124	0x3adf4f00	0.0017037094
125	0x3d07028f	0.032961424
126	0x3e006cd3	0.12541513
127	0xbd4fda9b	-0.050745588
128	0x3d398ab6	0.0452983
129	0xbd878e8f	-0.06618988
130	0x3cbdd6c8	0.023173705
131	0xbbdda0f9	-0.006763574
132	0xbd318132	-0.0433361
133	0x3cc96b3a	0.024587262
134	0x3a813ee5	0.0009860663
135	0x3d34597b	0.044030648
136	0x3d880eb7	0.06643432
137	0xbace3cfa	-0.0015734725
138	0xbcffdc18	-0.031232879
139	0x3d077eb2	0.03307981
140	0x3d0b0d22	0.03394807
141	0xbdac5931	-0.084154494
142	0xbd8f2e8c	-0.069913
143	0xbcd4920f	-0.025948552
144	0x3b24b787	0.0025133805
145	0x3c842ee2	0.016135637
146	0x3d83d8f9	0.064378686
147	0x3d08b5b0	0.033376396
148	0xbca338c4	-0.019924529
149	0xbc0c8742	-0.00857717
150	0xbdab5885	-0.08366493
151	0xbd8137b6	-0.06309454
152	0x3c8b831b	0.01703029
153	0x3d0e1485	0.034687538
154	0xbd6e4831	-0.058174316
155	0x3d315478	0.043293446
156	0x3c075d46	0.008261984
157	0xbdd8374d	-0.10557423
158	0x3bcc872b	0.006241699
159	0x3cac4ae7	0.02103181
160	0x3d19d52c	0.037556812
161	0x3c8425d7	0.016131325
162	0xbccba308	-0.024858013
163	0xbcefa0ad	-0.02925142
164	0xbdbf2ed7	-0.09335106
165	0xbc8aedc1	-0.016959073
166	0x3d53e732	0.051734157
167	0x3c8991fd	0.016793245
168	0x3d04cb0d	0.032420207
169	0x3cb9dad0	0.022687346
170	0x3c570bdb	0.013125385
171	0xbd8b808c	-0.06811628
172	0xbd62d2c7	-0.055376794
173	0x3d87d527	0.066324525
174	0xbd2318e6	-0.039818667
175	0xbd44b69e	-0.04802572
176	0xbc89cf2c	-0.01682242
177	0x3de1bf2b	0.110227905
178	0xbd092df9	-0.03349111
179	0xbd9ccd8d	-0.07656393
180	0xbc9424e3	-0.018083995
181	0x3d4496c1	0.047995333
182	0xbcd77aab	-0.02630361
183	0xbd146118	-0.03622541
184	0xbd8e60c8	-0.06952053
185	0xbd9a10e5	-0.075227536
186	0xbd06a8e7	-0.03287592
187	0xbc4b8788	-0.01242245
188	0xbcf16752	-0.029468212
189	0x3ad0c397	0.0015927431
190	0xbb1faf24	-0.0024365867
191	0x3c855837	0.016277416
192	0xbc76f680	-0.015073419
193	0x3be73406	0.007055762
194	0x3dbc8fd2	0.09207119
195	0x3d4d5663	0.050131213
196	0xbd38ce53	-0.04511864
197	0xbb831ca7	-0.0040012184
198	0xbcd59e9a	-0.026076604
199	0x3ca3c0c3	0.019989377
200	0x3c20fc3d	0.009825763
201	0x3df14e6e	0.117825374
202	0xbd46cbd1	-0.04853422
203	0xbccfd562	-0.025370304
204	0x3c4eca74	0.012621511
205	0x3de81201	0.11331559
206	0x3bd4351e	0.0064760586
207	0xbcbb3d85	-0.022856483
208	0x3ce73131	0.028221698
209	0x3b49caea	0.0030791112
210	0x3d99e39a	0.07514115
211	0x3d1050d1	0.035233323
212	0x3cf52fa0	0.029929936
213	0xbc2cc364	-0.010544632
214	0x3cff3984	0.031155355
215	0x3d0d03ec	0.03442757
216	0x3ae55536	0.0017496708
217	0x3d00cd53	0.031445812
218	0xbcb1b3a4	-0.021692105
219	0xbd72551d	-0.0591632
220	0x3c9a3e57	0.018828554
221	0xbcfa80df	-0.030579029
222	0xbcf306fc	-0.029666416
223	0x3da369c0	0.079791546
224	0xbc0ff1b2	-0.008785652
225	0xbd0c83a5	-0.034305234
226	0xbd17dda0	-0.037076592
227	0xbbd787de	-0.006577476
228	0x3d9f2b4e	0.077719316
229	0xbcf1dec4	-0.029525168
230	0xbd2be6a6	-0.04196801
231	0x3c3c2222	0.011482747
232	0x3d9c5405	0.07633213
233	0xbae7e0ff	-0.0017690955
234	0x3bfb2b6c	0.0076650884
235	0x3cb95ffb	0.022628775
236	0xbcff54c8	-0.031168357
237	0xbd46f0fc	-0.048569664
238	0x3cf97a30	0.030453771
239	0x3dae66ca	0.08515699
240	0xbd7be07b	-0.061493378
241	0x3ab2579c	0.0013606432
242	0xbdaa31b9	-0.08310265
243	0xbd745011	-0.05964667
244	0x3d1dc329	0.038516197
245	0xbd458f9c	-0.04823266
246	0xbc47235d	-0.012154427
247	0x3dc87ea5	0.097897805
248	0xbd887cec	-0.06664452
249	0xbd64c659	-0.05585322
250	0xbc70f5ee	-0.014707072
251	0xbd204c7c	-0.03913544
252	0xbc37aab9	-0.011210137
253	0xbc11fbb0	-0.008910105
254	0x3d60a8b0	0.054848373
255	0xbcc1a385	-0.023637543

actor.4.anchors.0.bias f4 [6]
0	0x3d548b44	0.051890627
1	0x3d001533	0.031270217
2	0x3d383bb9	0.04497883
3	0x3de964b7	0.11396163
4	0x3d1866f1	0.037207548
5	0x3bdb29e2	0.0066883424

critic.0.weight f4 [256, 17]
0	0xbe56ff2b	-0.20995776
1	0xbe6e9111	-0.23297526
2	0xbe3d6bf3	-0.1849821
3	0x3e50261f	0.20327042
4	0xbd8f9eba	-0.070126966
5	0x3e596d0a	0.21233001
6	0x3e89912a	0.26868564
7	0xbb2a2317	-0.0025960857
8	0x3d21205e	0.03933751
9	0xbea832e3	-0.32851323
10	0x3d7b8956	0.06141027
11	0xbd989fe9	-0.074523754
12	0x3cce4331	0.025178524
13	0xbd476815	-0.048683245
14	0xbe1bdebf	-0.1522169
15	0xbe531da9	-0.20616783
16	0xbd8d9dee	-0.06914888
17	0x3e623aa0	0.22092676
18	0x3eb8d163	0.3609725
19	0xbe255201	-0.16144563
20	0xbe322fb8	-0.17401016
21	0x3e935ba5	0.28780857
22	0x3ecc284f	0.39874503
23	0x3e72da7c	0.23716158
24	0xbdd1553c	-0.10221335
25	0xbe2eb821	-0.17062427
26	0x3e777d01	0.24168779
27	0x3ea0f5fa	0.31437665
28	0x3d91dac7	0.071218066
29	0x3e1140da	0.14184895
30	0xbda11e52	-0.07867111
31	0x3deb5824	0.11491421
32	0x3c3ea603	0.01163626
33	0x3df838be	0.12120198
34	0x3dc785ea	0.09742339
35	0xbc9b9f6b	-0.018996915
36	0x3c4e5a3d	0.012594757
37	0x3ed456cb	0.41472468
38	0xbe77b943	-0.24191765
39	0x3e372031	0.17883374
40	0xbce2f402	-0.027704243
41	0x3ce84dac	0.02835735
42	0x3e29d329	0.16584457
43	0xbe481a30	-0.1954124
44	0xbdd446a7	-0.10365038
45	0x3d3a79ea	0.045526423
46	0x3cdd6666	0.027026366
47	0x3d60112d	0.05470388
48	0xbd83103b	-0.0639958
49	0xbd23c225	-0.039980073
50	0xbdff043a	-0.12451978
51	0x3e1c06c6	0.15236959
52	0xbec475e3	-0.3837119
53	0x3cbddf0a	0.023177642
54	0x3e702851	0.2345288
55	0xbdb1ffad	-0.086913444
56	0xbe496b28	-0.19669783
57	0x3ccc5516	0.024942916
58	0xbd960e29	-0.073269196
59	0xba4641cf	-0.0007562907
60	0xbdcf5684	-0.101239234
61	0x3ba0aac3	0.004903169
62	0xbcea1528	-0.028574541
63	0xbcf0aac2	-0.029378299
64	0xbc2581ed	-0.0101017775
65	0x3c8a9eec	0.016921483
66	0xbc245b3b	-0.010031517
67	0x3ca04c04	0.019567497
68	0x3f12792e	0.57216156
69	0xbe8cdfee	-0.27514595
70	0xbe8f81cc	-0.28028715
71	0x3e938dd1	0.28819135
72	0xbe95ab7d	-0.29232398
73	0x3d42e6fe	0.047583573
74	0xbc5b6d12	-0.013392704
75	0x3d4b1eee	0.049590044
76	0xbd8a40bc	-0.06750628
77	0xbdba58de	-0.09098981
78	0xbdbed085	-0.09317116
79	0xbe69bcba	-0.228259
80	0xbe3840e7	-0.17993508
81	0xbbd49f11	-0.0064886888
82	0x3e30ea64	0.17276913
83	0xbc1773c9	-0.009243914
84	0xbdef62e3	-0.11688783
85	0x3f270ebe	0.6525687
86	0xbcb4b643	-0.022059565
87	0xbe20b333	-0.15693359
88	0xbd047929	-0.03234211
89	0x3d50d144	0.05098082
90	0x3d3029ec	0.04300873
91	0xbe7ac834	-0.24490434
92	0xbde49e65	-0.11163024
93	0xbcb08108	-0.021545902
94	0x3b8ee52c	0.0043608155
95	0x3e49293d	0.19644637
96	0xbc1b774b	-0.009488891
97	0xbac7c0f0	-0.0015239995
98	0xbdd29506	-0.1028233
99	0xbd40adca	-0.04704074
100	0xbe222367	-0.15833817
101	0xbd9312ef	-0.07181346
102	0xbec21625	-0.3790752
103	0x3eca8272	0.39552647
104	0xbe386130	-0.18005824
105	0x3e40d470	0.18831038
106	0xbe848196	-0.25880116
107	0x3edf78e9	0.43646935
108	0xbe7f5f97	-0.24938808
109	0x3e9a3bde	0.301238
110	0xbe4e1e62	-0.20128778
111	0xbe92a7d3	-0.28643665
112	0x3e2dfe3c	0.16991514
113	0x3d4d532b	0.050128143
114	0x3d4872f0	0.048937738
115	0x3d214c7b	0.039379578
116	0xbb3271ad	-0.00272284
117	0x3caf2437	0.021379573
118	0xbc8074f3	-0.015680766
119	0x3f168ef1	0.5881186
120	0x3ddd6427	0.10810118
121	0xbea66003	-0.32495126
122	0xbda68425	-0.08130673
123	0xbdba6c29	-0.09102661
124	0x3eb545d7	0.35404846
125	0x3eda6c47	0.42660734
126	0x3ea6e6b2	0.32597882
127	0x3d608b8e	0.05482059
128	0xbc133f0a	-0.008987198
129	0x3e19e912	0.15030316
130	0xbe131d1f	-0.14366578
131	0x3d04cacc	0.032419965
132	0x3c09dec6	0.00841493
133	0xbd51dc6f	-0.051235612
134	0xbda7d3bc	-0.08194682
135	0x3cbeda77	0.023297532
136	0x3cffacb6	0.031210285
137	0x3bfaeb5d	0.007657452
138	0xbefbb171	-0.49158815
139	0x3ec8783b	0.3915423
140	0xbe7002ac	-0.23438519
141	0x3e022733	0.12710266
142	0x3e5fc4dd	0.21852441
143	0xbe2648a1	-0.16238643
144	0x3dccdbb2	0.10002841
145	0x3e15fcac	0.14647168
146	0xbe721de2	-0.23644212
147	0x3d800b22	0.062521234
148	0xbd1d3259	-0.038378093
149	0x3d814b6e	0.06313215
150	0xbdfff055	-0.124970116
151	0xbd89a7ef	-0.06721484
152	0x3d8441dc	0.06457874
153	0xbe1906f2	-0.14944056
154	0x3eb54c51	0.35409787
155	0x3e42a4d9	0.19008197
156	0xbdaad9d9	-0.083423324
157	0x3e738ea3	0.2378488
158	0x3d929c83	0.071587585
159	0x3ea4c6eb	0.32183012
160	0xbd1a8418	-0.03772363
161	0xbe4df017	-0.20111118
162	0xbd4c2e04	-0.04984857
163	0x3e4e5d40	0.2015276
164	0x3d864b40	0.065573215
165	0x3e0c7e0b	0.13719957
166	0xbdc8134a	-0.09769304
167	0xbd408a3e	-0.047006838
168	0xbc36944d	-0.011143756
169	0xbdc6764b	-0.09690531
170	0x3f105d90	0.56392765
171	0xbe9f637a	-0.31130582
172	0x3ea68fc8	0.3253157
173	0xbddedcf5	-0.10881988
174	0x3dd1661e	0.102245554
175	0xbee60738	-0.44927382
176	0x3e10ae2e	0.14128944
177	0x3d0e4ae1	0.03473938
178	0xbe105376	-0.14094338
179	0x3e650ed3	0.22368936
180	0xbde6935e	-0.11258577
181	0x3d957219	0.07297153
182	0x3ddc0c16	0.10744493
183	0xbddc9c90	-0.107720494
184	0xbcaa1c12	-0.020765338
185	0xbda809b9	-0.082049794
186	0xbd0f8e25	-0.03504767
187	0xbe3f5d0d	-0.1868784
188	0x3d886b83	0.06661131
189	0x3d9b37a2	0.075789705
190	0xbc8f1c59	-0.017469572
191	0x3dea52aa	0.11441548
192	0x3dba01dc	0.09082386
193	0x3e90f12a	0.28308994
194	0x3eb4333e	0.35195345
195	0x3dae6bfd	0.08516691
196	0xbe26755d	-0.16255708
197	0xbe4a51fb	-0.19757836
198	0xbe03bfac	-0.12866086
199	0x3d6faf0f	0.05851656
200	0x3d7e9b90	0.062160075
201	0x3e1786a1	0.1479745
202	0xbe1601f9	-0.1464919
203	0xbd9dcf43	-0.07705548
204	0x3ea09b3b	0.3136843
205	0x3d0b77e4	0.034049883
206	0x3e055773	0.1302164
207	0x3c567e94	0.013091702
208	0xbdf8b0fe	-0.121431336
209	0x3ec25b3e	0.37960237
210	0xbeb5055c	-0.3535565
211	0xbdc65de5	-0.09685878
212	0x3dedfef3	0.11620893
213	0x3e019fe3	0.12658648
214	0xbd4dbc02	-0.050228126
215	0x3e3b4713	0.18288831
216	0x3d0539de	0.03252589
217	0xbe0e4d10	-0.13896585
218	0x3e564e07	0.20928203
219	0x3e3006ed	0.17190142
220	0x3cffb49f	0.031214057
221	0xbe073722	-0.13204625
222	0x3ce07483	0.027399307
223	0xbee557dc	-0.44793594
224	0x3c9dc535	0.019259075
225	0x3cf224f1	0.02955863
226	0xbe2ec147	-0.17065917
227	0x3dded82e	0.10881077
228	0x3c840b92	0.016118798
229	0x3d6778e2	0.056511767
230	0xbe485b4e	-0.1956608
231	0xbdc9dc87	-0.098565154
232	0xbd44a0a1	-0.04800475
233	0xbde7d94a	-0.113207415
234	0x3d469e4d	0.04849081
235	0xbddc7b66	-0.10765724
236	0x3d3ce6e4	0.046118632
237	0x3d9e6591	0.07734216
238	0xbe4364b5	-0.19081385
239	0xbe59ff2b	-0.21288745
240	0xbcdb3822	-0.026760165
241	0x3ecff3b0	0.40615606
242	0x3dddadc4	0.10824159
243	0x3da4a5bc	0.08039424
244	0x3ebc149d	0.36734477
245	0xbe776dc1	-0.24162962
246	0xbee52ed3	-0.44762287
247	0xbe7787a7	-0.24172841
248	0x3d9e3244	0.07724431
249	0xbd890aa2	-0.06691481
250	0x3a945ec8	0.0011319751
251	0xbd9c5cdd	-0.076349
252	0x3db491bd	0.0881686
253	0xbd055b8f	-0.03255802
254	0xbc9085a7	-0.017641855
255	0x3f384557	0.71980804

critic.0.bias f4 [256]
0	0xbf127c46	-0.57220876
1	0xbeaf5421	-0.34243873
2	0x3f0917c4	0.5355189
3	0x3f828aa1	1.0198556
4	0xbf1236af	-0.5711469
5	0xbf1bcafd	-0.6085661
6	0x3f2de376	0.679252
7	0xbed5c29b	-0.41750035
8	0x3f680bff	0.90643305
9	0x3f125758	0.57164526
10	0x3eb08deb	0.34483275
11	0xbf0fe5cd	-0.56210023
12	0xbf1c2cc5	-0.6100581
13	0x3ecdcc7f	0.4019508
14	0xbe2217f3	-0.15829448
15	0xbe6a0486	-0.22853288
16	0xbf0867a8	-0.53283167
17	0xbf1904c9	-0.59772927
18	0x3f120b63	0.57048625
19	0xbf35db50	-0.7103777
20	0x3f4b98ac	0.79529834
21	0x3f344803	0.7042238
22	0x3f76b9bb	0.9637715
23	0x3f48d7a7	0.7845406
24	0x3f87a331	1.0596677
25	0xbf154853	-0.58313483
26	0x3d7b8b0c	0.061411902
27	0xbf234f77	-0.6379313
28	0xbe6d7a3f	-0.23191164
29	0xbf15f3ac	-0.5857494
30	0x3ea2430c	0.31691778
31	0xbf198cd7	-0.5998053
32	0xbea0e021	-0.31420997
33	0x3d9714cc	0.073770136
34	0xbd8436fc	-0.064558
35	0xbf13d83f	-0.5775184
36	0xbebcd271	-0.36879304
37	0x3f525e12	0.8217479
38	0x3f171452	0.5901538
39	0x3f87c9d1	1.0608464
40	0x3f0a247e	0.5396193
41	0x3e6f3927	0.23361646
42	0xbeccd49c	-0.40005958
43	0xbe5cb66c	-0.21553963
44	0x3e1a0a36	0.15042958
45	0xbf0241a1	-0.5088139
46	0x3ebb5795	0.36590257
47	0x3f5ca527	0.861895
48	0x3f843ef2	1.0331709
49	0xbf1ddbbd	-0.6166342
50	0x3f6bd418	0.92120504
51	0xbe97be33	-0.29637298
52	0xbe96e6f4	-0.29473078
53	0x3f333ac6	0.70011556
54	0x3f8586b1	1.043173
55	0xbf149c32	-0.58050835
56	0x3f443599	0.76644284
57	0xbef33d63	-0.47507772
58	0x3f4d2a87	0.80143017
59	0x3f3ceca0	0.7379856
60	0xbe8b2421	-0.27176002
61	0xbf1672e8	-0.58769083
62	0xbf0cf3a3	-0.5505926
63	0x3eb7ef09	0.35924557
64	0xbed6d152	-0.41956574
65	0x3e60ea17	0.21964298
66	0x3f434b98	0.7628722
67	0xbed12e24	-0.40855515
68	0xbe5b3720	-0.21407747
69	0xbe42f5a3	-0.19039015
70	0xbcecf493	-0.028925216
71	0xbee07dab	-0.43845877
72	0xbf355ba3	-0.7084295
73	0xbd9b823f	-0.07593202
74	0xbf1ab4ce	-0.60432136
75	0x3f2b14fc	0.66828895
76	0xbedfb5ab	-0.4369329
77	0xbeac1f3c	-0.3361758
78	0x3f64c99c	0.8937013
79	0x3f65dc31	0.8978911
80	0xbec7deaa	-0.39037067
81	0xbee3ebf8	-0.44515967
82	0xbe965d03	-0.29367837
83	0xbee79946	-0.45234126
84	0xbf0e7fe4	-0.55663896
85	0x3f60f835	0.87878734
86	0xbeb472ed	-0.3524393
87	0xbeea2c54	-0.45736945
88	0x3f6f14dc	0.93391204
89	0x3f01f8a1	0.5077
90	0x3f499e7e	0.78757465
91	0x3f060eb3	0.5236618
92	0x3bea06a9	0.0071419072
93	0x3f36d2fa	0.71415675
94	0x3e12db8b	0.14341561
95	0xbf1dfd6d	-0.6171482
96	0xbe6a0392	-0.22852924
97	0xbf1bbb7d	-0.6083296
98	0x3f021e55	0.50827533
99	0x3f13a3cc	0.5767181
100	0x3f171fac	0.590327
101	0x3e0fae81	0.14031412
102	0xbe9cd685	-0.30632415
103	0x3db64601	0.08900071
104	0x3f0dd60c	0.55404735
105	0xbe3e1d4d	-0.18565865
106	0xbf02caa7	-0.5109047
107	0xbef35ae4	-0.47530282
108	0x3f5a01ba	0.85158885
109	0xbed1bc3c	-0.40963924
110	0xbf037260	-0.513464
111	0xbe7c5169	-0.2464043
112	0x3e953782	0.29143912
113	0x3f3649e7	0.71206516
114	0x3f034ca4	0.5128882
115	0xbee755f8	-0.45182776
116	0xbe17aa7a	-0.14811125
117	0xbf001dc2	-0.50045407
118	0x3f6db5bd	0.92855436
119	0x3f6052ab	0.8762614
120	0x3f715014	0.94262815
121	0x3f4d4c68	0.8019471
122	0xbf174de2	-0.59103215
123	0x3f0d3b5b	0.55168694
124	0x3f4a247a	0.7896191
125	0x3d54595a	0.051843025
126	0xbdc665bc	-0.09687373
127	0x3eac1bd5	0.33614984
128	0xbedd6804	-0.4324342
129	0x3f488189	0.78322655
130	0xbf14e457	-0.5816092
131	0x3f67458f	0.90340513
132	0xbf16ce9d	-0.58909017
133	0x3f150819	0.5821548
134	0x3ed5e1fe	0.4177398
135	0xbf0570e3	-0.52125376
136	0xbed0a001	-0.40747073
137	0xbec89c0a	-0.39181548
138	0xbe3d52b1	-0.18488576
139	0xbec39f4d	-0.38207474
140	0x3eefbff3	0.46826133
141	0x3f57be86	0.8427509
142	0x3f1ce999	0.6129394
143	0xbef5bed5	-0.47997156
144	0x3f4a33ef	0.78985494
145	0x3f4b104c	0.7932174
146	0xbe4bd526	-0.19905528
147	0x3f3496cb	0.7054259
148	0x3f83ebb3	1.0306305
149	0x3f3c28f6	0.735
150	0xbe85ff71	-0.2617145
151	0x3e15c4e4	0.14625889
152	0x3e13accf	0.1442139
153	0xbe9b95ec	-0.3038782
154	0xbf0d9e62	-0.553198
155	0x3f6d8d48	0.92793703
156	0x3ecdcc5a	0.4019497
157	0xbe2e283a	-0.17007533
158	0xbed0205a	-0.40649682
159	0xbe8ef93f	-0.27924535
160	0xbeb37e20	-0.35057163
161	0xbf10dd4e	-0.56587684
162	0x3f793ec6	0.9736141
163	0x3f69e183	0.9135973
164	0xbd219832	-0.039451785
165	0x3f7dfc8a	0.9921347
166	0x3e562380	0.2091198
167	0x3f5cd1f1	0.86257845
168	0xbf06e5a4	-0.52694154
169	0xbede7094	-0.43445265
170	0xbea8caac	-0.32967126
171	0x3f5a04ea	0.8516375
172	0x3f6caf55	0.92455035
173	0xbf17f00d	-0.59350663
174	0x3f0e0bae	0.5548657
175	0xbf19935c	-0.5999048
176	0x3f2ce38f	0.67534727
177	0x3f372aa2	0.7154943
178	0x3f1b8a5f	0.6075801
179	0xbef53079	-0.47888544
180	0xbebcd306	-0.36879748
181	0x3f438c38	0.7638583
182	0x3e8b5164	0.27210534
183	0x3f141ffb	0.578613
184	0x3f826172	1.0185988
185	0x3f82b2e2	1.0210841
186	0x3f3bb2a9	0.7331949
187	0x3f42937b	0.7600629
188	0xbe4fb492	-0.20283726
189	0x3f6e30ca	0.93043196
190	0x3dceb965	0.10093955
191	0x3f80a07b	1.0048975
192	0x3f67d657	0.9056143
193	0xbe834a8b	-0.2564281
194	0xbf2a86b0	-0.66611767
195	0x3dac054b	0.08399447
196	0xbe9c9bde	-0.30587667
197	0xbea6ce13	-0.32579097
198	0x3f67a9d6	0.90493524
199	0x3f300b5e	0.68767345
200	0xbe8b37bb	-0.27190956
201	0x3f76bd4e	0.96382606
202	0x3ec39bb2	0.38204724
203	0x3f7d84b5	0.9903062
204	0xbef2964a	-0.47380286
205	0x3f331c30	0.69964886
206	0x3f2e622b	0.6811854
207	0x3f5f1fdc	0.8715799
208	0x3f41bddc	0.7568033
209	0xbf1581f9	-0.5840145
210	0x3f1e447e	0.6182326
211	0xbecdd690	-0.4020276
212	0xbf0404b3	-0.5156967
213	0xbe2526e8	-0.16128123
214	0x3dfb6b61	0.1227634
215	0x3edae4a2	0.42752558
216	0xbf2846e6	-0.6573318
217	0x3f5122fd	0.8169401
218	0xbeb9b391	-0.3626981
219	0xbeda49cb	-0.42634425
220	0x3f32467c	0.696388
221	0x3eae1203	0.33998117
222	0xbee8b97d	-0.45454016
223	0x3e89e470	0.26932096
224	0x3f0084d7	0.502027
225	0x3e1e917d	0.15485187
226	0x3f415a90	0.7552881
227	0xbec086c2	-0.37602812
228	0xbf37afa3	-0.71752375
229	0xbf07cb95	-0.53045017
230	0x3eb55f35	0.354242
231	0x3f901c1a	1.1258576
232	0x3f529b78	0.82268476
233	0x3f33569d	0.70054036
234	0xbee74729	-0.45171478
235	0x3f2ba57f	0.670494
236	0xbf04807b	-0.51758546
237	0xbec3cf9d	-0.38244334
238	0x3d8e3fb5	0.06945745
239	0x3f6096a2	0.8772985
240	0xbe223f42	-0.15844443
241	0x3e236fae	0.15960571
242	0x3f2f0c35	0.68378
243	0xbf1473c3	-0.5798914
244	0xbe190e93	-0.14946966
245	0x3f88b184	1.0679173
246	0xbf2371a9	-0.63845307
247	0x3ead4f64	0.33849633
248	0x3f60b753	0.8777973
249	0x3f1a02d9	0.60160595
250	0x3f7d5f3e	0.98973453
251	0x3f330666	0.6993164
252	0x3ea4f1a7	0.32215616
253	0x3e899df8	0.26878333
254	0x3f30808f	0.68946165
255	0xbea6c697	-0.32573387
